…
val_size: 10849, train_size: 43456

====> Statistics: Model name: MobileNetV3Small_model, epochs=100, batch_size=32, validation_split=0.2, lr=0.001, momentum=0.9, steps_per_epoch =100, feature shape= (224, 224, 3), no_classes=38, loss_function=categorical_crossentropy
Model: "model"
__________________________________________________________________________________________________
Layer (type)                    Output Shape         Param #     Connected to                     
==================================================================================================
input_7 (InputLayer)            [(None, 224, 224, 3) 0                                            
__________________________________________________________________________________________________
rescaling_1 (Rescaling)         (None, 224, 224, 3)  0           input_7[0][0]                    
__________________________________________________________________________________________________
Conv (Conv2D)                   (None, 112, 112, 16) 432         rescaling_1[0][0]                
__________________________________________________________________________________________________
Conv/BatchNorm (BatchNormalizat (None, 112, 112, 16) 64          Conv[0][0]                       
__________________________________________________________________________________________________
tf.__operators__.add_29 (TFOpLa (None, 112, 112, 16) 0           Conv/BatchNorm[0][0]             
__________________________________________________________________________________________________
re_lu_40 (ReLU)                 (None, 112, 112, 16) 0           tf.__operators__.add_29[0][0]    
__________________________________________________________________________________________________
tf.math.multiply_29 (TFOpLambda (None, 112, 112, 16) 0           re_lu_40[0][0]                   
__________________________________________________________________________________________________
multiply_21 (Multiply)          (None, 112, 112, 16) 0           tf.math.multiply_29[0][0]        
                                                                 Conv/BatchNorm[0][0]             
__________________________________________________________________________________________________
expanded_conv/depthwise/pad (Ze (None, 113, 113, 16) 0           multiply_21[0][0]                
__________________________________________________________________________________________________
expanded_conv/depthwise (Depthw (None, 56, 56, 16)   144         expanded_conv/depthwise/pad[0][0]
__________________________________________________________________________________________________
expanded_conv/depthwise/BatchNo (None, 56, 56, 16)   64          expanded_conv/depthwise[0][0]    
__________________________________________________________________________________________________
re_lu_41 (ReLU)                 (None, 56, 56, 16)   0           expanded_conv/depthwise/BatchNorm
__________________________________________________________________________________________________
expanded_conv/squeeze_excite/Av (None, 16)           0           re_lu_41[0][0]                   
__________________________________________________________________________________________________
reshape_8 (Reshape)             (None, 1, 1, 16)     0           expanded_conv/squeeze_excite/AvgP
__________________________________________________________________________________________________
expanded_conv/squeeze_excite/Co (None, 1, 1, 8)      136         reshape_8[0][0]                  
__________________________________________________________________________________________________
expanded_conv/squeeze_excite/Re (None, 1, 1, 8)      0           expanded_conv/squeeze_excite/Conv
__________________________________________________________________________________________________
expanded_conv/squeeze_excite/Co (None, 1, 1, 16)     144         expanded_conv/squeeze_excite/Relu
__________________________________________________________________________________________________
tf.__operators__.add_30 (TFOpLa (None, 1, 1, 16)     0           expanded_conv/squeeze_excite/Conv
__________________________________________________________________________________________________
re_lu_42 (ReLU)                 (None, 1, 1, 16)     0           tf.__operators__.add_30[0][0]    
__________________________________________________________________________________________________
tf.math.multiply_30 (TFOpLambda (None, 1, 1, 16)     0           re_lu_42[0][0]                   
__________________________________________________________________________________________________
expanded_conv/squeeze_excite/Mu (None, 56, 56, 16)   0           re_lu_41[0][0]                   
                                                                 tf.math.multiply_30[0][0]        
__________________________________________________________________________________________________
expanded_conv/project (Conv2D)  (None, 56, 56, 16)   256         expanded_conv/squeeze_excite/Mul[
__________________________________________________________________________________________________
expanded_conv/project/BatchNorm (None, 56, 56, 16)   64          expanded_conv/project[0][0]      
__________________________________________________________________________________________________
expanded_conv_1/expand (Conv2D) (None, 56, 56, 72)   1152        expanded_conv/project/BatchNorm[0
__________________________________________________________________________________________________
expanded_conv_1/expand/BatchNor (None, 56, 56, 72)   288         expanded_conv_1/expand[0][0]     
__________________________________________________________________________________________________
re_lu_43 (ReLU)                 (None, 56, 56, 72)   0           expanded_conv_1/expand/BatchNorm[
__________________________________________________________________________________________________
expanded_conv_1/depthwise/pad ( (None, 57, 57, 72)   0           re_lu_43[0][0]                   
__________________________________________________________________________________________________
expanded_conv_1/depthwise (Dept (None, 28, 28, 72)   648         expanded_conv_1/depthwise/pad[0][
__________________________________________________________________________________________________
expanded_conv_1/depthwise/Batch (None, 28, 28, 72)   288         expanded_conv_1/depthwise[0][0]  
__________________________________________________________________________________________________
re_lu_44 (ReLU)                 (None, 28, 28, 72)   0           expanded_conv_1/depthwise/BatchNo
__________________________________________________________________________________________________
expanded_conv_1/project (Conv2D (None, 28, 28, 24)   1728        re_lu_44[0][0]                   
__________________________________________________________________________________________________
expanded_conv_1/project/BatchNo (None, 28, 28, 24)   96          expanded_conv_1/project[0][0]    
__________________________________________________________________________________________________
expanded_conv_2/expand (Conv2D) (None, 28, 28, 88)   2112        expanded_conv_1/project/BatchNorm
__________________________________________________________________________________________________
expanded_conv_2/expand/BatchNor (None, 28, 28, 88)   352         expanded_conv_2/expand[0][0]     
__________________________________________________________________________________________________
re_lu_45 (ReLU)                 (None, 28, 28, 88)   0           expanded_conv_2/expand/BatchNorm[
__________________________________________________________________________________________________
expanded_conv_2/depthwise (Dept (None, 28, 28, 88)   792         re_lu_45[0][0]                   
__________________________________________________________________________________________________
expanded_conv_2/depthwise/Batch (None, 28, 28, 88)   352         expanded_conv_2/depthwise[0][0]  
__________________________________________________________________________________________________
re_lu_46 (ReLU)                 (None, 28, 28, 88)   0           expanded_conv_2/depthwise/BatchNo
__________________________________________________________________________________________________
expanded_conv_2/project (Conv2D (None, 28, 28, 24)   2112        re_lu_46[0][0]                   
__________________________________________________________________________________________________
expanded_conv_2/project/BatchNo (None, 28, 28, 24)   96          expanded_conv_2/project[0][0]    
__________________________________________________________________________________________________
expanded_conv_2/Add (Add)       (None, 28, 28, 24)   0           expanded_conv_1/project/BatchNorm
                                                                 expanded_conv_2/project/BatchNorm
__________________________________________________________________________________________________
expanded_conv_3/expand (Conv2D) (None, 28, 28, 96)   2304        expanded_conv_2/Add[0][0]        
__________________________________________________________________________________________________
expanded_conv_3/expand/BatchNor (None, 28, 28, 96)   384         expanded_conv_3/expand[0][0]     
__________________________________________________________________________________________________
tf.__operators__.add_31 (TFOpLa (None, 28, 28, 96)   0           expanded_conv_3/expand/BatchNorm[
__________________________________________________________________________________________________
re_lu_47 (ReLU)                 (None, 28, 28, 96)   0           tf.__operators__.add_31[0][0]    
__________________________________________________________________________________________________
tf.math.multiply_31 (TFOpLambda (None, 28, 28, 96)   0           re_lu_47[0][0]                   
__________________________________________________________________________________________________
multiply_22 (Multiply)          (None, 28, 28, 96)   0           tf.math.multiply_31[0][0]        
                                                                 expanded_conv_3/expand/BatchNorm[
__________________________________________________________________________________________________
expanded_conv_3/depthwise/pad ( (None, 31, 31, 96)   0           multiply_22[0][0]                
__________________________________________________________________________________________________
expanded_conv_3/depthwise (Dept (None, 14, 14, 96)   2400        expanded_conv_3/depthwise/pad[0][
__________________________________________________________________________________________________
expanded_conv_3/depthwise/Batch (None, 14, 14, 96)   384         expanded_conv_3/depthwise[0][0]  
__________________________________________________________________________________________________
tf.__operators__.add_32 (TFOpLa (None, 14, 14, 96)   0           expanded_conv_3/depthwise/BatchNo
__________________________________________________________________________________________________
re_lu_48 (ReLU)                 (None, 14, 14, 96)   0           tf.__operators__.add_32[0][0]    
__________________________________________________________________________________________________
tf.math.multiply_32 (TFOpLambda (None, 14, 14, 96)   0           re_lu_48[0][0]                   
__________________________________________________________________________________________________
multiply_23 (Multiply)          (None, 14, 14, 96)   0           tf.math.multiply_32[0][0]        
                                                                 expanded_conv_3/depthwise/BatchNo
__________________________________________________________________________________________________
expanded_conv_3/squeeze_excite/ (None, 96)           0           multiply_23[0][0]                
__________________________________________________________________________________________________
reshape_9 (Reshape)             (None, 1, 1, 96)     0           expanded_conv_3/squeeze_excite/Av
__________________________________________________________________________________________________
expanded_conv_3/squeeze_excite/ (None, 1, 1, 24)     2328        reshape_9[0][0]                  
__________________________________________________________________________________________________
expanded_conv_3/squeeze_excite/ (None, 1, 1, 24)     0           expanded_conv_3/squeeze_excite/Co
__________________________________________________________________________________________________
expanded_conv_3/squeeze_excite/ (None, 1, 1, 96)     2400        expanded_conv_3/squeeze_excite/Re
__________________________________________________________________________________________________
tf.__operators__.add_33 (TFOpLa (None, 1, 1, 96)     0           expanded_conv_3/squeeze_excite/Co
__________________________________________________________________________________________________
re_lu_49 (ReLU)                 (None, 1, 1, 96)     0           tf.__operators__.add_33[0][0]    
__________________________________________________________________________________________________
tf.math.multiply_33 (TFOpLambda (None, 1, 1, 96)     0           re_lu_49[0][0]                   
__________________________________________________________________________________________________
expanded_conv_3/squeeze_excite/ (None, 14, 14, 96)   0           multiply_23[0][0]                
                                                                 tf.math.multiply_33[0][0]        
__________________________________________________________________________________________________
expanded_conv_3/project (Conv2D (None, 14, 14, 40)   3840        expanded_conv_3/squeeze_excite/Mu
__________________________________________________________________________________________________
expanded_conv_3/project/BatchNo (None, 14, 14, 40)   160         expanded_conv_3/project[0][0]    
__________________________________________________________________________________________________
expanded_conv_4/expand (Conv2D) (None, 14, 14, 240)  9600        expanded_conv_3/project/BatchNorm
__________________________________________________________________________________________________
expanded_conv_4/expand/BatchNor (None, 14, 14, 240)  960         expanded_conv_4/expand[0][0]     
__________________________________________________________________________________________________
tf.__operators__.add_34 (TFOpLa (None, 14, 14, 240)  0           expanded_conv_4/expand/BatchNorm[
__________________________________________________________________________________________________
re_lu_50 (ReLU)                 (None, 14, 14, 240)  0           tf.__operators__.add_34[0][0]    
__________________________________________________________________________________________________
tf.math.multiply_34 (TFOpLambda (None, 14, 14, 240)  0           re_lu_50[0][0]                   
__________________________________________________________________________________________________
multiply_24 (Multiply)          (None, 14, 14, 240)  0           tf.math.multiply_34[0][0]        
                                                                 expanded_conv_4/expand/BatchNorm[
__________________________________________________________________________________________________
expanded_conv_4/depthwise (Dept (None, 14, 14, 240)  6000        multiply_24[0][0]                
__________________________________________________________________________________________________
expanded_conv_4/depthwise/Batch (None, 14, 14, 240)  960         expanded_conv_4/depthwise[0][0]  
__________________________________________________________________________________________________
tf.__operators__.add_35 (TFOpLa (None, 14, 14, 240)  0           expanded_conv_4/depthwise/BatchNo
__________________________________________________________________________________________________
re_lu_51 (ReLU)                 (None, 14, 14, 240)  0           tf.__operators__.add_35[0][0]    
__________________________________________________________________________________________________
tf.math.multiply_35 (TFOpLambda (None, 14, 14, 240)  0           re_lu_51[0][0]                   
__________________________________________________________________________________________________
multiply_25 (Multiply)          (None, 14, 14, 240)  0           tf.math.multiply_35[0][0]        
                                                                 expanded_conv_4/depthwise/BatchNo
__________________________________________________________________________________________________
expanded_conv_4/squeeze_excite/ (None, 240)          0           multiply_25[0][0]                
__________________________________________________________________________________________________
reshape_10 (Reshape)            (None, 1, 1, 240)    0           expanded_conv_4/squeeze_excite/Av
__________________________________________________________________________________________________
expanded_conv_4/squeeze_excite/ (None, 1, 1, 64)     15424       reshape_10[0][0]                 
__________________________________________________________________________________________________
expanded_conv_4/squeeze_excite/ (None, 1, 1, 64)     0           expanded_conv_4/squeeze_excite/Co
__________________________________________________________________________________________________
expanded_conv_4/squeeze_excite/ (None, 1, 1, 240)    15600       expanded_conv_4/squeeze_excite/Re
__________________________________________________________________________________________________
tf.__operators__.add_36 (TFOpLa (None, 1, 1, 240)    0           expanded_conv_4/squeeze_excite/Co
__________________________________________________________________________________________________
re_lu_52 (ReLU)                 (None, 1, 1, 240)    0           tf.__operators__.add_36[0][0]    
__________________________________________________________________________________________________
tf.math.multiply_36 (TFOpLambda (None, 1, 1, 240)    0           re_lu_52[0][0]                   
__________________________________________________________________________________________________
expanded_conv_4/squeeze_excite/ (None, 14, 14, 240)  0           multiply_25[0][0]                
                                                                 tf.math.multiply_36[0][0]        
__________________________________________________________________________________________________
expanded_conv_4/project (Conv2D (None, 14, 14, 40)   9600        expanded_conv_4/squeeze_excite/Mu
__________________________________________________________________________________________________
expanded_conv_4/project/BatchNo (None, 14, 14, 40)   160         expanded_conv_4/project[0][0]    
__________________________________________________________________________________________________
expanded_conv_4/Add (Add)       (None, 14, 14, 40)   0           expanded_conv_3/project/BatchNorm
                                                                 expanded_conv_4/project/BatchNorm
__________________________________________________________________________________________________
expanded_conv_5/expand (Conv2D) (None, 14, 14, 240)  9600        expanded_conv_4/Add[0][0]        
__________________________________________________________________________________________________
expanded_conv_5/expand/BatchNor (None, 14, 14, 240)  960         expanded_conv_5/expand[0][0]     
__________________________________________________________________________________________________
tf.__operators__.add_37 (TFOpLa (None, 14, 14, 240)  0           expanded_conv_5/expand/BatchNorm[
__________________________________________________________________________________________________
re_lu_53 (ReLU)                 (None, 14, 14, 240)  0           tf.__operators__.add_37[0][0]    
__________________________________________________________________________________________________
tf.math.multiply_37 (TFOpLambda (None, 14, 14, 240)  0           re_lu_53[0][0]                   
__________________________________________________________________________________________________
multiply_26 (Multiply)          (None, 14, 14, 240)  0           tf.math.multiply_37[0][0]        
                                                                 expanded_conv_5/expand/BatchNorm[
__________________________________________________________________________________________________
expanded_conv_5/depthwise (Dept (None, 14, 14, 240)  6000        multiply_26[0][0]                
__________________________________________________________________________________________________
expanded_conv_5/depthwise/Batch (None, 14, 14, 240)  960         expanded_conv_5/depthwise[0][0]  
__________________________________________________________________________________________________
tf.__operators__.add_38 (TFOpLa (None, 14, 14, 240)  0           expanded_conv_5/depthwise/BatchNo
__________________________________________________________________________________________________
re_lu_54 (ReLU)                 (None, 14, 14, 240)  0           tf.__operators__.add_38[0][0]    
__________________________________________________________________________________________________
tf.math.multiply_38 (TFOpLambda (None, 14, 14, 240)  0           re_lu_54[0][0]                   
__________________________________________________________________________________________________
multiply_27 (Multiply)          (None, 14, 14, 240)  0           tf.math.multiply_38[0][0]        
                                                                 expanded_conv_5/depthwise/BatchNo
__________________________________________________________________________________________________
expanded_conv_5/squeeze_excite/ (None, 240)          0           multiply_27[0][0]                
__________________________________________________________________________________________________
reshape_11 (Reshape)            (None, 1, 1, 240)    0           expanded_conv_5/squeeze_excite/Av
__________________________________________________________________________________________________
expanded_conv_5/squeeze_excite/ (None, 1, 1, 64)     15424       reshape_11[0][0]                 
__________________________________________________________________________________________________
expanded_conv_5/squeeze_excite/ (None, 1, 1, 64)     0           expanded_conv_5/squeeze_excite/Co
__________________________________________________________________________________________________
expanded_conv_5/squeeze_excite/ (None, 1, 1, 240)    15600       expanded_conv_5/squeeze_excite/Re
__________________________________________________________________________________________________
tf.__operators__.add_39 (TFOpLa (None, 1, 1, 240)    0           expanded_conv_5/squeeze_excite/Co
__________________________________________________________________________________________________
re_lu_55 (ReLU)                 (None, 1, 1, 240)    0           tf.__operators__.add_39[0][0]    
__________________________________________________________________________________________________
tf.math.multiply_39 (TFOpLambda (None, 1, 1, 240)    0           re_lu_55[0][0]                   
__________________________________________________________________________________________________
expanded_conv_5/squeeze_excite/ (None, 14, 14, 240)  0           multiply_27[0][0]                
                                                                 tf.math.multiply_39[0][0]        
__________________________________________________________________________________________________
expanded_conv_5/project (Conv2D (None, 14, 14, 40)   9600        expanded_conv_5/squeeze_excite/Mu
__________________________________________________________________________________________________
expanded_conv_5/project/BatchNo (None, 14, 14, 40)   160         expanded_conv_5/project[0][0]    
__________________________________________________________________________________________________
expanded_conv_5/Add (Add)       (None, 14, 14, 40)   0           expanded_conv_4/Add[0][0]        
                                                                 expanded_conv_5/project/BatchNorm
__________________________________________________________________________________________________
expanded_conv_6/expand (Conv2D) (None, 14, 14, 120)  4800        expanded_conv_5/Add[0][0]        
__________________________________________________________________________________________________
expanded_conv_6/expand/BatchNor (None, 14, 14, 120)  480         expanded_conv_6/expand[0][0]     
__________________________________________________________________________________________________
tf.__operators__.add_40 (TFOpLa (None, 14, 14, 120)  0           expanded_conv_6/expand/BatchNorm[
__________________________________________________________________________________________________
re_lu_56 (ReLU)                 (None, 14, 14, 120)  0           tf.__operators__.add_40[0][0]    
__________________________________________________________________________________________________
tf.math.multiply_40 (TFOpLambda (None, 14, 14, 120)  0           re_lu_56[0][0]                   
__________________________________________________________________________________________________
multiply_28 (Multiply)          (None, 14, 14, 120)  0           tf.math.multiply_40[0][0]        
                                                                 expanded_conv_6/expand/BatchNorm[
__________________________________________________________________________________________________
expanded_conv_6/depthwise (Dept (None, 14, 14, 120)  3000        multiply_28[0][0]                
__________________________________________________________________________________________________
expanded_conv_6/depthwise/Batch (None, 14, 14, 120)  480         expanded_conv_6/depthwise[0][0]  
__________________________________________________________________________________________________
tf.__operators__.add_41 (TFOpLa (None, 14, 14, 120)  0           expanded_conv_6/depthwise/BatchNo
__________________________________________________________________________________________________
re_lu_57 (ReLU)                 (None, 14, 14, 120)  0           tf.__operators__.add_41[0][0]    
__________________________________________________________________________________________________
tf.math.multiply_41 (TFOpLambda (None, 14, 14, 120)  0           re_lu_57[0][0]                   
__________________________________________________________________________________________________
multiply_29 (Multiply)          (None, 14, 14, 120)  0           tf.math.multiply_41[0][0]        
                                                                 expanded_conv_6/depthwise/BatchNo
__________________________________________________________________________________________________
expanded_conv_6/squeeze_excite/ (None, 120)          0           multiply_29[0][0]                
__________________________________________________________________________________________________
reshape_12 (Reshape)            (None, 1, 1, 120)    0           expanded_conv_6/squeeze_excite/Av
__________________________________________________________________________________________________
expanded_conv_6/squeeze_excite/ (None, 1, 1, 32)     3872        reshape_12[0][0]                 
__________________________________________________________________________________________________
expanded_conv_6/squeeze_excite/ (None, 1, 1, 32)     0           expanded_conv_6/squeeze_excite/Co
__________________________________________________________________________________________________
expanded_conv_6/squeeze_excite/ (None, 1, 1, 120)    3960        expanded_conv_6/squeeze_excite/Re
__________________________________________________________________________________________________
tf.__operators__.add_42 (TFOpLa (None, 1, 1, 120)    0           expanded_conv_6/squeeze_excite/Co
__________________________________________________________________________________________________
re_lu_58 (ReLU)                 (None, 1, 1, 120)    0           tf.__operators__.add_42[0][0]    
__________________________________________________________________________________________________
tf.math.multiply_42 (TFOpLambda (None, 1, 1, 120)    0           re_lu_58[0][0]                   
__________________________________________________________________________________________________
expanded_conv_6/squeeze_excite/ (None, 14, 14, 120)  0           multiply_29[0][0]                
                                                                 tf.math.multiply_42[0][0]        
__________________________________________________________________________________________________
expanded_conv_6/project (Conv2D (None, 14, 14, 48)   5760        expanded_conv_6/squeeze_excite/Mu
__________________________________________________________________________________________________
expanded_conv_6/project/BatchNo (None, 14, 14, 48)   192         expanded_conv_6/project[0][0]    
__________________________________________________________________________________________________
expanded_conv_7/expand (Conv2D) (None, 14, 14, 144)  6912        expanded_conv_6/project/BatchNorm
__________________________________________________________________________________________________
expanded_conv_7/expand/BatchNor (None, 14, 14, 144)  576         expanded_conv_7/expand[0][0]     
__________________________________________________________________________________________________
tf.__operators__.add_43 (TFOpLa (None, 14, 14, 144)  0           expanded_conv_7/expand/BatchNorm[
__________________________________________________________________________________________________
re_lu_59 (ReLU)                 (None, 14, 14, 144)  0           tf.__operators__.add_43[0][0]    
__________________________________________________________________________________________________
tf.math.multiply_43 (TFOpLambda (None, 14, 14, 144)  0           re_lu_59[0][0]                   
__________________________________________________________________________________________________
multiply_30 (Multiply)          (None, 14, 14, 144)  0           tf.math.multiply_43[0][0]        
                                                                 expanded_conv_7/expand/BatchNorm[
__________________________________________________________________________________________________
expanded_conv_7/depthwise (Dept (None, 14, 14, 144)  3600        multiply_30[0][0]                
__________________________________________________________________________________________________
expanded_conv_7/depthwise/Batch (None, 14, 14, 144)  576         expanded_conv_7/depthwise[0][0]  
__________________________________________________________________________________________________
tf.__operators__.add_44 (TFOpLa (None, 14, 14, 144)  0           expanded_conv_7/depthwise/BatchNo
__________________________________________________________________________________________________
re_lu_60 (ReLU)                 (None, 14, 14, 144)  0           tf.__operators__.add_44[0][0]    
__________________________________________________________________________________________________
tf.math.multiply_44 (TFOpLambda (None, 14, 14, 144)  0           re_lu_60[0][0]                   
__________________________________________________________________________________________________
multiply_31 (Multiply)          (None, 14, 14, 144)  0           tf.math.multiply_44[0][0]        
                                                                 expanded_conv_7/depthwise/BatchNo
__________________________________________________________________________________________________
expanded_conv_7/squeeze_excite/ (None, 144)          0           multiply_31[0][0]                
__________________________________________________________________________________________________
reshape_13 (Reshape)            (None, 1, 1, 144)    0           expanded_conv_7/squeeze_excite/Av
__________________________________________________________________________________________________
expanded_conv_7/squeeze_excite/ (None, 1, 1, 40)     5800        reshape_13[0][0]                 
__________________________________________________________________________________________________
expanded_conv_7/squeeze_excite/ (None, 1, 1, 40)     0           expanded_conv_7/squeeze_excite/Co
__________________________________________________________________________________________________
expanded_conv_7/squeeze_excite/ (None, 1, 1, 144)    5904        expanded_conv_7/squeeze_excite/Re
__________________________________________________________________________________________________
tf.__operators__.add_45 (TFOpLa (None, 1, 1, 144)    0           expanded_conv_7/squeeze_excite/Co
__________________________________________________________________________________________________
re_lu_61 (ReLU)                 (None, 1, 1, 144)    0           tf.__operators__.add_45[0][0]    
__________________________________________________________________________________________________
tf.math.multiply_45 (TFOpLambda (None, 1, 1, 144)    0           re_lu_61[0][0]                   
__________________________________________________________________________________________________
expanded_conv_7/squeeze_excite/ (None, 14, 14, 144)  0           multiply_31[0][0]                
                                                                 tf.math.multiply_45[0][0]        
__________________________________________________________________________________________________
expanded_conv_7/project (Conv2D (None, 14, 14, 48)   6912        expanded_conv_7/squeeze_excite/Mu
__________________________________________________________________________________________________
expanded_conv_7/project/BatchNo (None, 14, 14, 48)   192         expanded_conv_7/project[0][0]    
__________________________________________________________________________________________________
expanded_conv_7/Add (Add)       (None, 14, 14, 48)   0           expanded_conv_6/project/BatchNorm
                                                                 expanded_conv_7/project/BatchNorm
__________________________________________________________________________________________________
expanded_conv_8/expand (Conv2D) (None, 14, 14, 288)  13824       expanded_conv_7/Add[0][0]        
__________________________________________________________________________________________________
expanded_conv_8/expand/BatchNor (None, 14, 14, 288)  1152        expanded_conv_8/expand[0][0]     
__________________________________________________________________________________________________
tf.__operators__.add_46 (TFOpLa (None, 14, 14, 288)  0           expanded_conv_8/expand/BatchNorm[
__________________________________________________________________________________________________
re_lu_62 (ReLU)                 (None, 14, 14, 288)  0           tf.__operators__.add_46[0][0]    
__________________________________________________________________________________________________
tf.math.multiply_46 (TFOpLambda (None, 14, 14, 288)  0           re_lu_62[0][0]                   
__________________________________________________________________________________________________
multiply_32 (Multiply)          (None, 14, 14, 288)  0           tf.math.multiply_46[0][0]        
                                                                 expanded_conv_8/expand/BatchNorm[
__________________________________________________________________________________________________
expanded_conv_8/depthwise/pad ( (None, 17, 17, 288)  0           multiply_32[0][0]                
__________________________________________________________________________________________________
expanded_conv_8/depthwise (Dept (None, 7, 7, 288)    7200        expanded_conv_8/depthwise/pad[0][
__________________________________________________________________________________________________
expanded_conv_8/depthwise/Batch (None, 7, 7, 288)    1152        expanded_conv_8/depthwise[0][0]  
__________________________________________________________________________________________________
tf.__operators__.add_47 (TFOpLa (None, 7, 7, 288)    0           expanded_conv_8/depthwise/BatchNo
__________________________________________________________________________________________________
re_lu_63 (ReLU)                 (None, 7, 7, 288)    0           tf.__operators__.add_47[0][0]    
__________________________________________________________________________________________________
tf.math.multiply_47 (TFOpLambda (None, 7, 7, 288)    0           re_lu_63[0][0]                   
__________________________________________________________________________________________________
multiply_33 (Multiply)          (None, 7, 7, 288)    0           tf.math.multiply_47[0][0]        
                                                                 expanded_conv_8/depthwise/BatchNo
__________________________________________________________________________________________________
expanded_conv_8/squeeze_excite/ (None, 288)          0           multiply_33[0][0]                
__________________________________________________________________________________________________
reshape_14 (Reshape)            (None, 1, 1, 288)    0           expanded_conv_8/squeeze_excite/Av
__________________________________________________________________________________________________
expanded_conv_8/squeeze_excite/ (None, 1, 1, 72)     20808       reshape_14[0][0]                 
__________________________________________________________________________________________________
expanded_conv_8/squeeze_excite/ (None, 1, 1, 72)     0           expanded_conv_8/squeeze_excite/Co
__________________________________________________________________________________________________
expanded_conv_8/squeeze_excite/ (None, 1, 1, 288)    21024       expanded_conv_8/squeeze_excite/Re
__________________________________________________________________________________________________
tf.__operators__.add_48 (TFOpLa (None, 1, 1, 288)    0           expanded_conv_8/squeeze_excite/Co
__________________________________________________________________________________________________
re_lu_64 (ReLU)                 (None, 1, 1, 288)    0           tf.__operators__.add_48[0][0]    
__________________________________________________________________________________________________
tf.math.multiply_48 (TFOpLambda (None, 1, 1, 288)    0           re_lu_64[0][0]                   
__________________________________________________________________________________________________
expanded_conv_8/squeeze_excite/ (None, 7, 7, 288)    0           multiply_33[0][0]                
                                                                 tf.math.multiply_48[0][0]        
__________________________________________________________________________________________________
expanded_conv_8/project (Conv2D (None, 7, 7, 96)     27648       expanded_conv_8/squeeze_excite/Mu
__________________________________________________________________________________________________
expanded_conv_8/project/BatchNo (None, 7, 7, 96)     384         expanded_conv_8/project[0][0]    
__________________________________________________________________________________________________
expanded_conv_9/expand (Conv2D) (None, 7, 7, 576)    55296       expanded_conv_8/project/BatchNorm
__________________________________________________________________________________________________
expanded_conv_9/expand/BatchNor (None, 7, 7, 576)    2304        expanded_conv_9/expand[0][0]     
__________________________________________________________________________________________________
tf.__operators__.add_49 (TFOpLa (None, 7, 7, 576)    0           expanded_conv_9/expand/BatchNorm[
__________________________________________________________________________________________________
re_lu_65 (ReLU)                 (None, 7, 7, 576)    0           tf.__operators__.add_49[0][0]    
__________________________________________________________________________________________________
tf.math.multiply_49 (TFOpLambda (None, 7, 7, 576)    0           re_lu_65[0][0]                   
__________________________________________________________________________________________________
multiply_34 (Multiply)          (None, 7, 7, 576)    0           tf.math.multiply_49[0][0]        
                                                                 expanded_conv_9/expand/BatchNorm[
__________________________________________________________________________________________________
expanded_conv_9/depthwise (Dept (None, 7, 7, 576)    14400       multiply_34[0][0]                
__________________________________________________________________________________________________
expanded_conv_9/depthwise/Batch (None, 7, 7, 576)    2304        expanded_conv_9/depthwise[0][0]  
__________________________________________________________________________________________________
tf.__operators__.add_50 (TFOpLa (None, 7, 7, 576)    0           expanded_conv_9/depthwise/BatchNo
__________________________________________________________________________________________________
re_lu_66 (ReLU)                 (None, 7, 7, 576)    0           tf.__operators__.add_50[0][0]    
__________________________________________________________________________________________________
tf.math.multiply_50 (TFOpLambda (None, 7, 7, 576)    0           re_lu_66[0][0]                   
__________________________________________________________________________________________________
multiply_35 (Multiply)          (None, 7, 7, 576)    0           tf.math.multiply_50[0][0]        
                                                                 expanded_conv_9/depthwise/BatchNo
__________________________________________________________________________________________________
expanded_conv_9/squeeze_excite/ (None, 576)          0           multiply_35[0][0]                
__________________________________________________________________________________________________
reshape_15 (Reshape)            (None, 1, 1, 576)    0           expanded_conv_9/squeeze_excite/Av
__________________________________________________________________________________________________
expanded_conv_9/squeeze_excite/ (None, 1, 1, 144)    83088       reshape_15[0][0]                 
__________________________________________________________________________________________________
expanded_conv_9/squeeze_excite/ (None, 1, 1, 144)    0           expanded_conv_9/squeeze_excite/Co
__________________________________________________________________________________________________
expanded_conv_9/squeeze_excite/ (None, 1, 1, 576)    83520       expanded_conv_9/squeeze_excite/Re
__________________________________________________________________________________________________
tf.__operators__.add_51 (TFOpLa (None, 1, 1, 576)    0           expanded_conv_9/squeeze_excite/Co
__________________________________________________________________________________________________
re_lu_67 (ReLU)                 (None, 1, 1, 576)    0           tf.__operators__.add_51[0][0]    
__________________________________________________________________________________________________
tf.math.multiply_51 (TFOpLambda (None, 1, 1, 576)    0           re_lu_67[0][0]                   
__________________________________________________________________________________________________
expanded_conv_9/squeeze_excite/ (None, 7, 7, 576)    0           multiply_35[0][0]                
                                                                 tf.math.multiply_51[0][0]        
__________________________________________________________________________________________________
expanded_conv_9/project (Conv2D (None, 7, 7, 96)     55296       expanded_conv_9/squeeze_excite/Mu
__________________________________________________________________________________________________
expanded_conv_9/project/BatchNo (None, 7, 7, 96)     384         expanded_conv_9/project[0][0]    
__________________________________________________________________________________________________
expanded_conv_9/Add (Add)       (None, 7, 7, 96)     0           expanded_conv_8/project/BatchNorm
                                                                 expanded_conv_9/project/BatchNorm
__________________________________________________________________________________________________
expanded_conv_10/expand (Conv2D (None, 7, 7, 576)    55296       expanded_conv_9/Add[0][0]        
__________________________________________________________________________________________________
expanded_conv_10/expand/BatchNo (None, 7, 7, 576)    2304        expanded_conv_10/expand[0][0]    
__________________________________________________________________________________________________
tf.__operators__.add_52 (TFOpLa (None, 7, 7, 576)    0           expanded_conv_10/expand/BatchNorm
__________________________________________________________________________________________________
re_lu_68 (ReLU)                 (None, 7, 7, 576)    0           tf.__operators__.add_52[0][0]    
__________________________________________________________________________________________________
tf.math.multiply_52 (TFOpLambda (None, 7, 7, 576)    0           re_lu_68[0][0]                   
__________________________________________________________________________________________________
multiply_36 (Multiply)          (None, 7, 7, 576)    0           tf.math.multiply_52[0][0]        
                                                                 expanded_conv_10/expand/BatchNorm
__________________________________________________________________________________________________
expanded_conv_10/depthwise (Dep (None, 7, 7, 576)    14400       multiply_36[0][0]                
__________________________________________________________________________________________________
expanded_conv_10/depthwise/Batc (None, 7, 7, 576)    2304        expanded_conv_10/depthwise[0][0] 
__________________________________________________________________________________________________
tf.__operators__.add_53 (TFOpLa (None, 7, 7, 576)    0           expanded_conv_10/depthwise/BatchN
__________________________________________________________________________________________________
re_lu_69 (ReLU)                 (None, 7, 7, 576)    0           tf.__operators__.add_53[0][0]    
__________________________________________________________________________________________________
tf.math.multiply_53 (TFOpLambda (None, 7, 7, 576)    0           re_lu_69[0][0]                   
__________________________________________________________________________________________________
multiply_37 (Multiply)          (None, 7, 7, 576)    0           tf.math.multiply_53[0][0]        
                                                                 expanded_conv_10/depthwise/BatchN
__________________________________________________________________________________________________
expanded_conv_10/squeeze_excite (None, 576)          0           multiply_37[0][0]                
__________________________________________________________________________________________________
reshape_16 (Reshape)            (None, 1, 1, 576)    0           expanded_conv_10/squeeze_excite/A
__________________________________________________________________________________________________
expanded_conv_10/squeeze_excite (None, 1, 1, 144)    83088       reshape_16[0][0]                 
__________________________________________________________________________________________________
expanded_conv_10/squeeze_excite (None, 1, 1, 144)    0           expanded_conv_10/squeeze_excite/C
__________________________________________________________________________________________________
expanded_conv_10/squeeze_excite (None, 1, 1, 576)    83520       expanded_conv_10/squeeze_excite/R
__________________________________________________________________________________________________
tf.__operators__.add_54 (TFOpLa (None, 1, 1, 576)    0           expanded_conv_10/squeeze_excite/C
__________________________________________________________________________________________________
re_lu_70 (ReLU)                 (None, 1, 1, 576)    0           tf.__operators__.add_54[0][0]    
__________________________________________________________________________________________________
tf.math.multiply_54 (TFOpLambda (None, 1, 1, 576)    0           re_lu_70[0][0]                   
__________________________________________________________________________________________________
expanded_conv_10/squeeze_excite (None, 7, 7, 576)    0           multiply_37[0][0]                
                                                                 tf.math.multiply_54[0][0]        
__________________________________________________________________________________________________
expanded_conv_10/project (Conv2 (None, 7, 7, 96)     55296       expanded_conv_10/squeeze_excite/M
__________________________________________________________________________________________________
expanded_conv_10/project/BatchN (None, 7, 7, 96)     384         expanded_conv_10/project[0][0]   
__________________________________________________________________________________________________
expanded_conv_10/Add (Add)      (None, 7, 7, 96)     0           expanded_conv_9/Add[0][0]        
                                                                 expanded_conv_10/project/BatchNor
__________________________________________________________________________________________________
Conv_1 (Conv2D)                 (None, 7, 7, 576)    55296       expanded_conv_10/Add[0][0]       
__________________________________________________________________________________________________
Conv_1/BatchNorm (BatchNormaliz (None, 7, 7, 576)    2304        Conv_1[0][0]                     
__________________________________________________________________________________________________
tf.__operators__.add_55 (TFOpLa (None, 7, 7, 576)    0           Conv_1/BatchNorm[0][0]           
__________________________________________________________________________________________________
re_lu_71 (ReLU)                 (None, 7, 7, 576)    0           tf.__operators__.add_55[0][0]    
__________________________________________________________________________________________________
tf.math.multiply_55 (TFOpLambda (None, 7, 7, 576)    0           re_lu_71[0][0]                   
__________________________________________________________________________________________________
multiply_38 (Multiply)          (None, 7, 7, 576)    0           tf.math.multiply_55[0][0]        
                                                                 Conv_1/BatchNorm[0][0]           
__________________________________________________________________________________________________
Conv_2 (Conv2D)                 (None, 7, 7, 1024)   590848      multiply_38[0][0]                
__________________________________________________________________________________________________
tf.__operators__.add_56 (TFOpLa (None, 7, 7, 1024)   0           Conv_2[0][0]                     
__________________________________________________________________________________________________
re_lu_72 (ReLU)                 (None, 7, 7, 1024)   0           tf.__operators__.add_56[0][0]    
__________________________________________________________________________________________________
tf.math.multiply_56 (TFOpLambda (None, 7, 7, 1024)   0           re_lu_72[0][0]                   
__________________________________________________________________________________________________
multiply_39 (Multiply)          (None, 7, 7, 1024)   0           tf.math.multiply_56[0][0]        
                                                                 Conv_2[0][0]                     
__________________________________________________________________________________________________
flatten (Flatten)               (None, 50176)        0           multiply_39[0][0]                
__________________________________________________________________________________________________
dense (Dense)                   (None, 1024)         51381248    flatten[0][0]                    
__________________________________________________________________________________________________
dense_1 (Dense)                 (None, 38)           38950       dense[0][0]                      
==================================================================================================
Total params: 52,950,166
Trainable params: 51,420,198
Non-trainable params: 1,529,968
__________________________________________________________________________________________________
None
Epoch 1/100
2021-01-18 03:02:04.182774: I tensorflow/stream_executor/platform/default/dso_loader.cc:49] Successfully opened dynamic library libcublas.so.11
…
