…
val_size: 10849, train_size: 43456

====> Statistics: Model name: MobileNetV3Large_model, epochs=40, batch_size=32, validation_split=0.2, lr=0.001, momentum=0.9, steps_per_epoch =100, feature shape= (256, 256, 3), no_classes=38, loss_function=categorical_crossentropy
Model: "model"
__________________________________________________________________________________________________
Layer (type)                    Output Shape         Param #     Connected to                     
==================================================================================================
input_6 (InputLayer)            [(None, 256, 256, 3) 0                                            
__________________________________________________________________________________________________
rescaling (Rescaling)           (None, 256, 256, 3)  0           input_6[0][0]                    
__________________________________________________________________________________________________
Conv (Conv2D)                   (None, 128, 128, 16) 432         rescaling[0][0]                  
__________________________________________________________________________________________________
Conv/BatchNorm (BatchNormalizat (None, 128, 128, 16) 64          Conv[0][0]                       
__________________________________________________________________________________________________
tf.__operators__.add (TFOpLambd (None, 128, 128, 16) 0           Conv/BatchNorm[0][0]             
__________________________________________________________________________________________________
re_lu (ReLU)                    (None, 128, 128, 16) 0           tf.__operators__.add[0][0]       
__________________________________________________________________________________________________
tf.math.multiply (TFOpLambda)   (None, 128, 128, 16) 0           re_lu[0][0]                      
__________________________________________________________________________________________________
multiply (Multiply)             (None, 128, 128, 16) 0           tf.math.multiply[0][0]           
                                                                 Conv/BatchNorm[0][0]             
__________________________________________________________________________________________________
expanded_conv/depthwise (Depthw (None, 128, 128, 16) 144         multiply[0][0]                   
__________________________________________________________________________________________________
expanded_conv/depthwise/BatchNo (None, 128, 128, 16) 64          expanded_conv/depthwise[0][0]    
__________________________________________________________________________________________________
re_lu_1 (ReLU)                  (None, 128, 128, 16) 0           expanded_conv/depthwise/BatchNorm
__________________________________________________________________________________________________
expanded_conv/project (Conv2D)  (None, 128, 128, 16) 256         re_lu_1[0][0]                    
__________________________________________________________________________________________________
expanded_conv/project/BatchNorm (None, 128, 128, 16) 64          expanded_conv/project[0][0]      
__________________________________________________________________________________________________
expanded_conv/Add (Add)         (None, 128, 128, 16) 0           multiply[0][0]                   
                                                                 expanded_conv/project/BatchNorm[0
__________________________________________________________________________________________________
expanded_conv_1/expand (Conv2D) (None, 128, 128, 64) 1024        expanded_conv/Add[0][0]          
__________________________________________________________________________________________________
expanded_conv_1/expand/BatchNor (None, 128, 128, 64) 256         expanded_conv_1/expand[0][0]     
__________________________________________________________________________________________________
re_lu_2 (ReLU)                  (None, 128, 128, 64) 0           expanded_conv_1/expand/BatchNorm[
__________________________________________________________________________________________________
expanded_conv_1/depthwise/pad ( (None, 129, 129, 64) 0           re_lu_2[0][0]                    
__________________________________________________________________________________________________
expanded_conv_1/depthwise (Dept (None, 64, 64, 64)   576         expanded_conv_1/depthwise/pad[0][
__________________________________________________________________________________________________
expanded_conv_1/depthwise/Batch (None, 64, 64, 64)   256         expanded_conv_1/depthwise[0][0]  
__________________________________________________________________________________________________
re_lu_3 (ReLU)                  (None, 64, 64, 64)   0           expanded_conv_1/depthwise/BatchNo
__________________________________________________________________________________________________
expanded_conv_1/project (Conv2D (None, 64, 64, 24)   1536        re_lu_3[0][0]                    
__________________________________________________________________________________________________
expanded_conv_1/project/BatchNo (None, 64, 64, 24)   96          expanded_conv_1/project[0][0]    
__________________________________________________________________________________________________
expanded_conv_2/expand (Conv2D) (None, 64, 64, 72)   1728        expanded_conv_1/project/BatchNorm
__________________________________________________________________________________________________
expanded_conv_2/expand/BatchNor (None, 64, 64, 72)   288         expanded_conv_2/expand[0][0]     
__________________________________________________________________________________________________
re_lu_4 (ReLU)                  (None, 64, 64, 72)   0           expanded_conv_2/expand/BatchNorm[
__________________________________________________________________________________________________
expanded_conv_2/depthwise (Dept (None, 64, 64, 72)   648         re_lu_4[0][0]                    
__________________________________________________________________________________________________
expanded_conv_2/depthwise/Batch (None, 64, 64, 72)   288         expanded_conv_2/depthwise[0][0]  
__________________________________________________________________________________________________
re_lu_5 (ReLU)                  (None, 64, 64, 72)   0           expanded_conv_2/depthwise/BatchNo
__________________________________________________________________________________________________
expanded_conv_2/project (Conv2D (None, 64, 64, 24)   1728        re_lu_5[0][0]                    
__________________________________________________________________________________________________
expanded_conv_2/project/BatchNo (None, 64, 64, 24)   96          expanded_conv_2/project[0][0]    
__________________________________________________________________________________________________
expanded_conv_2/Add (Add)       (None, 64, 64, 24)   0           expanded_conv_1/project/BatchNorm
                                                                 expanded_conv_2/project/BatchNorm
__________________________________________________________________________________________________
expanded_conv_3/expand (Conv2D) (None, 64, 64, 72)   1728        expanded_conv_2/Add[0][0]        
__________________________________________________________________________________________________
expanded_conv_3/expand/BatchNor (None, 64, 64, 72)   288         expanded_conv_3/expand[0][0]     
__________________________________________________________________________________________________
re_lu_6 (ReLU)                  (None, 64, 64, 72)   0           expanded_conv_3/expand/BatchNorm[
__________________________________________________________________________________________________
expanded_conv_3/depthwise/pad ( (None, 67, 67, 72)   0           re_lu_6[0][0]                    
__________________________________________________________________________________________________
expanded_conv_3/depthwise (Dept (None, 32, 32, 72)   1800        expanded_conv_3/depthwise/pad[0][
__________________________________________________________________________________________________
expanded_conv_3/depthwise/Batch (None, 32, 32, 72)   288         expanded_conv_3/depthwise[0][0]  
__________________________________________________________________________________________________
re_lu_7 (ReLU)                  (None, 32, 32, 72)   0           expanded_conv_3/depthwise/BatchNo
__________________________________________________________________________________________________
expanded_conv_3/squeeze_excite/ (None, 72)           0           re_lu_7[0][0]                    
__________________________________________________________________________________________________
reshape (Reshape)               (None, 1, 1, 72)     0           expanded_conv_3/squeeze_excite/Av
__________________________________________________________________________________________________
expanded_conv_3/squeeze_excite/ (None, 1, 1, 24)     1752        reshape[0][0]                    
__________________________________________________________________________________________________
expanded_conv_3/squeeze_excite/ (None, 1, 1, 24)     0           expanded_conv_3/squeeze_excite/Co
__________________________________________________________________________________________________
expanded_conv_3/squeeze_excite/ (None, 1, 1, 72)     1800        expanded_conv_3/squeeze_excite/Re
__________________________________________________________________________________________________
tf.__operators__.add_1 (TFOpLam (None, 1, 1, 72)     0           expanded_conv_3/squeeze_excite/Co
__________________________________________________________________________________________________
re_lu_8 (ReLU)                  (None, 1, 1, 72)     0           tf.__operators__.add_1[0][0]     
__________________________________________________________________________________________________
tf.math.multiply_1 (TFOpLambda) (None, 1, 1, 72)     0           re_lu_8[0][0]                    
__________________________________________________________________________________________________
expanded_conv_3/squeeze_excite/ (None, 32, 32, 72)   0           re_lu_7[0][0]                    
                                                                 tf.math.multiply_1[0][0]         
__________________________________________________________________________________________________
expanded_conv_3/project (Conv2D (None, 32, 32, 40)   2880        expanded_conv_3/squeeze_excite/Mu
__________________________________________________________________________________________________
expanded_conv_3/project/BatchNo (None, 32, 32, 40)   160         expanded_conv_3/project[0][0]    
__________________________________________________________________________________________________
expanded_conv_4/expand (Conv2D) (None, 32, 32, 120)  4800        expanded_conv_3/project/BatchNorm
__________________________________________________________________________________________________
expanded_conv_4/expand/BatchNor (None, 32, 32, 120)  480         expanded_conv_4/expand[0][0]     
__________________________________________________________________________________________________
re_lu_9 (ReLU)                  (None, 32, 32, 120)  0           expanded_conv_4/expand/BatchNorm[
__________________________________________________________________________________________________
expanded_conv_4/depthwise (Dept (None, 32, 32, 120)  3000        re_lu_9[0][0]                    
__________________________________________________________________________________________________
expanded_conv_4/depthwise/Batch (None, 32, 32, 120)  480         expanded_conv_4/depthwise[0][0]  
__________________________________________________________________________________________________
re_lu_10 (ReLU)                 (None, 32, 32, 120)  0           expanded_conv_4/depthwise/BatchNo
__________________________________________________________________________________________________
expanded_conv_4/squeeze_excite/ (None, 120)          0           re_lu_10[0][0]                   
__________________________________________________________________________________________________
reshape_1 (Reshape)             (None, 1, 1, 120)    0           expanded_conv_4/squeeze_excite/Av
__________________________________________________________________________________________________
expanded_conv_4/squeeze_excite/ (None, 1, 1, 32)     3872        reshape_1[0][0]                  
__________________________________________________________________________________________________
expanded_conv_4/squeeze_excite/ (None, 1, 1, 32)     0           expanded_conv_4/squeeze_excite/Co
__________________________________________________________________________________________________
expanded_conv_4/squeeze_excite/ (None, 1, 1, 120)    3960        expanded_conv_4/squeeze_excite/Re
__________________________________________________________________________________________________
tf.__operators__.add_2 (TFOpLam (None, 1, 1, 120)    0           expanded_conv_4/squeeze_excite/Co
__________________________________________________________________________________________________
re_lu_11 (ReLU)                 (None, 1, 1, 120)    0           tf.__operators__.add_2[0][0]     
__________________________________________________________________________________________________
tf.math.multiply_2 (TFOpLambda) (None, 1, 1, 120)    0           re_lu_11[0][0]                   
__________________________________________________________________________________________________
expanded_conv_4/squeeze_excite/ (None, 32, 32, 120)  0           re_lu_10[0][0]                   
                                                                 tf.math.multiply_2[0][0]         
__________________________________________________________________________________________________
expanded_conv_4/project (Conv2D (None, 32, 32, 40)   4800        expanded_conv_4/squeeze_excite/Mu
__________________________________________________________________________________________________
expanded_conv_4/project/BatchNo (None, 32, 32, 40)   160         expanded_conv_4/project[0][0]    
__________________________________________________________________________________________________
expanded_conv_4/Add (Add)       (None, 32, 32, 40)   0           expanded_conv_3/project/BatchNorm
                                                                 expanded_conv_4/project/BatchNorm
__________________________________________________________________________________________________
expanded_conv_5/expand (Conv2D) (None, 32, 32, 120)  4800        expanded_conv_4/Add[0][0]        
__________________________________________________________________________________________________
expanded_conv_5/expand/BatchNor (None, 32, 32, 120)  480         expanded_conv_5/expand[0][0]     
__________________________________________________________________________________________________
re_lu_12 (ReLU)                 (None, 32, 32, 120)  0           expanded_conv_5/expand/BatchNorm[
__________________________________________________________________________________________________
expanded_conv_5/depthwise (Dept (None, 32, 32, 120)  3000        re_lu_12[0][0]                   
__________________________________________________________________________________________________
expanded_conv_5/depthwise/Batch (None, 32, 32, 120)  480         expanded_conv_5/depthwise[0][0]  
__________________________________________________________________________________________________
re_lu_13 (ReLU)                 (None, 32, 32, 120)  0           expanded_conv_5/depthwise/BatchNo
__________________________________________________________________________________________________
expanded_conv_5/squeeze_excite/ (None, 120)          0           re_lu_13[0][0]                   
__________________________________________________________________________________________________
reshape_2 (Reshape)             (None, 1, 1, 120)    0           expanded_conv_5/squeeze_excite/Av
__________________________________________________________________________________________________
expanded_conv_5/squeeze_excite/ (None, 1, 1, 32)     3872        reshape_2[0][0]                  
__________________________________________________________________________________________________
expanded_conv_5/squeeze_excite/ (None, 1, 1, 32)     0           expanded_conv_5/squeeze_excite/Co
__________________________________________________________________________________________________
expanded_conv_5/squeeze_excite/ (None, 1, 1, 120)    3960        expanded_conv_5/squeeze_excite/Re
__________________________________________________________________________________________________
tf.__operators__.add_3 (TFOpLam (None, 1, 1, 120)    0           expanded_conv_5/squeeze_excite/Co
__________________________________________________________________________________________________
re_lu_14 (ReLU)                 (None, 1, 1, 120)    0           tf.__operators__.add_3[0][0]     
__________________________________________________________________________________________________
tf.math.multiply_3 (TFOpLambda) (None, 1, 1, 120)    0           re_lu_14[0][0]                   
__________________________________________________________________________________________________
expanded_conv_5/squeeze_excite/ (None, 32, 32, 120)  0           re_lu_13[0][0]                   
                                                                 tf.math.multiply_3[0][0]         
__________________________________________________________________________________________________
expanded_conv_5/project (Conv2D (None, 32, 32, 40)   4800        expanded_conv_5/squeeze_excite/Mu
__________________________________________________________________________________________________
expanded_conv_5/project/BatchNo (None, 32, 32, 40)   160         expanded_conv_5/project[0][0]    
__________________________________________________________________________________________________
expanded_conv_5/Add (Add)       (None, 32, 32, 40)   0           expanded_conv_4/Add[0][0]        
                                                                 expanded_conv_5/project/BatchNorm
__________________________________________________________________________________________________
expanded_conv_6/expand (Conv2D) (None, 32, 32, 240)  9600        expanded_conv_5/Add[0][0]        
__________________________________________________________________________________________________
expanded_conv_6/expand/BatchNor (None, 32, 32, 240)  960         expanded_conv_6/expand[0][0]     
__________________________________________________________________________________________________
tf.__operators__.add_4 (TFOpLam (None, 32, 32, 240)  0           expanded_conv_6/expand/BatchNorm[
__________________________________________________________________________________________________
re_lu_15 (ReLU)                 (None, 32, 32, 240)  0           tf.__operators__.add_4[0][0]     
__________________________________________________________________________________________________
tf.math.multiply_4 (TFOpLambda) (None, 32, 32, 240)  0           re_lu_15[0][0]                   
__________________________________________________________________________________________________
multiply_1 (Multiply)           (None, 32, 32, 240)  0           tf.math.multiply_4[0][0]         
                                                                 expanded_conv_6/expand/BatchNorm[
__________________________________________________________________________________________________
expanded_conv_6/depthwise/pad ( (None, 33, 33, 240)  0           multiply_1[0][0]                 
__________________________________________________________________________________________________
expanded_conv_6/depthwise (Dept (None, 16, 16, 240)  2160        expanded_conv_6/depthwise/pad[0][
__________________________________________________________________________________________________
expanded_conv_6/depthwise/Batch (None, 16, 16, 240)  960         expanded_conv_6/depthwise[0][0]  
__________________________________________________________________________________________________
tf.__operators__.add_5 (TFOpLam (None, 16, 16, 240)  0           expanded_conv_6/depthwise/BatchNo
__________________________________________________________________________________________________
re_lu_16 (ReLU)                 (None, 16, 16, 240)  0           tf.__operators__.add_5[0][0]     
__________________________________________________________________________________________________
tf.math.multiply_5 (TFOpLambda) (None, 16, 16, 240)  0           re_lu_16[0][0]                   
__________________________________________________________________________________________________
multiply_2 (Multiply)           (None, 16, 16, 240)  0           tf.math.multiply_5[0][0]         
                                                                 expanded_conv_6/depthwise/BatchNo
__________________________________________________________________________________________________
expanded_conv_6/project (Conv2D (None, 16, 16, 80)   19200       multiply_2[0][0]                 
__________________________________________________________________________________________________
expanded_conv_6/project/BatchNo (None, 16, 16, 80)   320         expanded_conv_6/project[0][0]    
__________________________________________________________________________________________________
expanded_conv_7/expand (Conv2D) (None, 16, 16, 200)  16000       expanded_conv_6/project/BatchNorm
__________________________________________________________________________________________________
expanded_conv_7/expand/BatchNor (None, 16, 16, 200)  800         expanded_conv_7/expand[0][0]     
__________________________________________________________________________________________________
tf.__operators__.add_6 (TFOpLam (None, 16, 16, 200)  0           expanded_conv_7/expand/BatchNorm[
__________________________________________________________________________________________________
re_lu_17 (ReLU)                 (None, 16, 16, 200)  0           tf.__operators__.add_6[0][0]     
__________________________________________________________________________________________________
tf.math.multiply_6 (TFOpLambda) (None, 16, 16, 200)  0           re_lu_17[0][0]                   
__________________________________________________________________________________________________
multiply_3 (Multiply)           (None, 16, 16, 200)  0           tf.math.multiply_6[0][0]         
                                                                 expanded_conv_7/expand/BatchNorm[
__________________________________________________________________________________________________
expanded_conv_7/depthwise (Dept (None, 16, 16, 200)  1800        multiply_3[0][0]                 
__________________________________________________________________________________________________
expanded_conv_7/depthwise/Batch (None, 16, 16, 200)  800         expanded_conv_7/depthwise[0][0]  
__________________________________________________________________________________________________
tf.__operators__.add_7 (TFOpLam (None, 16, 16, 200)  0           expanded_conv_7/depthwise/BatchNo
__________________________________________________________________________________________________
re_lu_18 (ReLU)                 (None, 16, 16, 200)  0           tf.__operators__.add_7[0][0]     
__________________________________________________________________________________________________
tf.math.multiply_7 (TFOpLambda) (None, 16, 16, 200)  0           re_lu_18[0][0]                   
__________________________________________________________________________________________________
multiply_4 (Multiply)           (None, 16, 16, 200)  0           tf.math.multiply_7[0][0]         
                                                                 expanded_conv_7/depthwise/BatchNo
__________________________________________________________________________________________________
expanded_conv_7/project (Conv2D (None, 16, 16, 80)   16000       multiply_4[0][0]                 
__________________________________________________________________________________________________
expanded_conv_7/project/BatchNo (None, 16, 16, 80)   320         expanded_conv_7/project[0][0]    
__________________________________________________________________________________________________
expanded_conv_7/Add (Add)       (None, 16, 16, 80)   0           expanded_conv_6/project/BatchNorm
                                                                 expanded_conv_7/project/BatchNorm
__________________________________________________________________________________________________
expanded_conv_8/expand (Conv2D) (None, 16, 16, 184)  14720       expanded_conv_7/Add[0][0]        
__________________________________________________________________________________________________
expanded_conv_8/expand/BatchNor (None, 16, 16, 184)  736         expanded_conv_8/expand[0][0]     
__________________________________________________________________________________________________
tf.__operators__.add_8 (TFOpLam (None, 16, 16, 184)  0           expanded_conv_8/expand/BatchNorm[
__________________________________________________________________________________________________
re_lu_19 (ReLU)                 (None, 16, 16, 184)  0           tf.__operators__.add_8[0][0]     
__________________________________________________________________________________________________
tf.math.multiply_8 (TFOpLambda) (None, 16, 16, 184)  0           re_lu_19[0][0]                   
__________________________________________________________________________________________________
multiply_5 (Multiply)           (None, 16, 16, 184)  0           tf.math.multiply_8[0][0]         
                                                                 expanded_conv_8/expand/BatchNorm[
__________________________________________________________________________________________________
expanded_conv_8/depthwise (Dept (None, 16, 16, 184)  1656        multiply_5[0][0]                 
__________________________________________________________________________________________________
expanded_conv_8/depthwise/Batch (None, 16, 16, 184)  736         expanded_conv_8/depthwise[0][0]  
__________________________________________________________________________________________________
tf.__operators__.add_9 (TFOpLam (None, 16, 16, 184)  0           expanded_conv_8/depthwise/BatchNo
__________________________________________________________________________________________________
re_lu_20 (ReLU)                 (None, 16, 16, 184)  0           tf.__operators__.add_9[0][0]     
__________________________________________________________________________________________________
tf.math.multiply_9 (TFOpLambda) (None, 16, 16, 184)  0           re_lu_20[0][0]                   
__________________________________________________________________________________________________
multiply_6 (Multiply)           (None, 16, 16, 184)  0           tf.math.multiply_9[0][0]         
                                                                 expanded_conv_8/depthwise/BatchNo
__________________________________________________________________________________________________
expanded_conv_8/project (Conv2D (None, 16, 16, 80)   14720       multiply_6[0][0]                 
__________________________________________________________________________________________________
expanded_conv_8/project/BatchNo (None, 16, 16, 80)   320         expanded_conv_8/project[0][0]    
__________________________________________________________________________________________________
expanded_conv_8/Add (Add)       (None, 16, 16, 80)   0           expanded_conv_7/Add[0][0]        
                                                                 expanded_conv_8/project/BatchNorm
__________________________________________________________________________________________________
expanded_conv_9/expand (Conv2D) (None, 16, 16, 184)  14720       expanded_conv_8/Add[0][0]        
__________________________________________________________________________________________________
expanded_conv_9/expand/BatchNor (None, 16, 16, 184)  736         expanded_conv_9/expand[0][0]     
__________________________________________________________________________________________________
tf.__operators__.add_10 (TFOpLa (None, 16, 16, 184)  0           expanded_conv_9/expand/BatchNorm[
__________________________________________________________________________________________________
re_lu_21 (ReLU)                 (None, 16, 16, 184)  0           tf.__operators__.add_10[0][0]    
__________________________________________________________________________________________________
tf.math.multiply_10 (TFOpLambda (None, 16, 16, 184)  0           re_lu_21[0][0]                   
__________________________________________________________________________________________________
multiply_7 (Multiply)           (None, 16, 16, 184)  0           tf.math.multiply_10[0][0]        
                                                                 expanded_conv_9/expand/BatchNorm[
__________________________________________________________________________________________________
expanded_conv_9/depthwise (Dept (None, 16, 16, 184)  1656        multiply_7[0][0]                 
__________________________________________________________________________________________________
expanded_conv_9/depthwise/Batch (None, 16, 16, 184)  736         expanded_conv_9/depthwise[0][0]  
__________________________________________________________________________________________________
tf.__operators__.add_11 (TFOpLa (None, 16, 16, 184)  0           expanded_conv_9/depthwise/BatchNo
__________________________________________________________________________________________________
re_lu_22 (ReLU)                 (None, 16, 16, 184)  0           tf.__operators__.add_11[0][0]    
__________________________________________________________________________________________________
tf.math.multiply_11 (TFOpLambda (None, 16, 16, 184)  0           re_lu_22[0][0]                   
__________________________________________________________________________________________________
multiply_8 (Multiply)           (None, 16, 16, 184)  0           tf.math.multiply_11[0][0]        
                                                                 expanded_conv_9/depthwise/BatchNo
__________________________________________________________________________________________________
expanded_conv_9/project (Conv2D (None, 16, 16, 80)   14720       multiply_8[0][0]                 
__________________________________________________________________________________________________
expanded_conv_9/project/BatchNo (None, 16, 16, 80)   320         expanded_conv_9/project[0][0]    
__________________________________________________________________________________________________
expanded_conv_9/Add (Add)       (None, 16, 16, 80)   0           expanded_conv_8/Add[0][0]        
                                                                 expanded_conv_9/project/BatchNorm
__________________________________________________________________________________________________
expanded_conv_10/expand (Conv2D (None, 16, 16, 480)  38400       expanded_conv_9/Add[0][0]        
__________________________________________________________________________________________________
expanded_conv_10/expand/BatchNo (None, 16, 16, 480)  1920        expanded_conv_10/expand[0][0]    
__________________________________________________________________________________________________
tf.__operators__.add_12 (TFOpLa (None, 16, 16, 480)  0           expanded_conv_10/expand/BatchNorm
__________________________________________________________________________________________________
re_lu_23 (ReLU)                 (None, 16, 16, 480)  0           tf.__operators__.add_12[0][0]    
__________________________________________________________________________________________________
tf.math.multiply_12 (TFOpLambda (None, 16, 16, 480)  0           re_lu_23[0][0]                   
__________________________________________________________________________________________________
multiply_9 (Multiply)           (None, 16, 16, 480)  0           tf.math.multiply_12[0][0]        
                                                                 expanded_conv_10/expand/BatchNorm
__________________________________________________________________________________________________
expanded_conv_10/depthwise (Dep (None, 16, 16, 480)  4320        multiply_9[0][0]                 
__________________________________________________________________________________________________
expanded_conv_10/depthwise/Batc (None, 16, 16, 480)  1920        expanded_conv_10/depthwise[0][0] 
__________________________________________________________________________________________________
tf.__operators__.add_13 (TFOpLa (None, 16, 16, 480)  0           expanded_conv_10/depthwise/BatchN
__________________________________________________________________________________________________
re_lu_24 (ReLU)                 (None, 16, 16, 480)  0           tf.__operators__.add_13[0][0]    
__________________________________________________________________________________________________
tf.math.multiply_13 (TFOpLambda (None, 16, 16, 480)  0           re_lu_24[0][0]                   
__________________________________________________________________________________________________
multiply_10 (Multiply)          (None, 16, 16, 480)  0           tf.math.multiply_13[0][0]        
                                                                 expanded_conv_10/depthwise/BatchN
__________________________________________________________________________________________________
expanded_conv_10/squeeze_excite (None, 480)          0           multiply_10[0][0]                
__________________________________________________________________________________________________
reshape_3 (Reshape)             (None, 1, 1, 480)    0           expanded_conv_10/squeeze_excite/A
__________________________________________________________________________________________________
expanded_conv_10/squeeze_excite (None, 1, 1, 120)    57720       reshape_3[0][0]                  
__________________________________________________________________________________________________
expanded_conv_10/squeeze_excite (None, 1, 1, 120)    0           expanded_conv_10/squeeze_excite/C
__________________________________________________________________________________________________
expanded_conv_10/squeeze_excite (None, 1, 1, 480)    58080       expanded_conv_10/squeeze_excite/R
__________________________________________________________________________________________________
tf.__operators__.add_14 (TFOpLa (None, 1, 1, 480)    0           expanded_conv_10/squeeze_excite/C
__________________________________________________________________________________________________
re_lu_25 (ReLU)                 (None, 1, 1, 480)    0           tf.__operators__.add_14[0][0]    
__________________________________________________________________________________________________
tf.math.multiply_14 (TFOpLambda (None, 1, 1, 480)    0           re_lu_25[0][0]                   
__________________________________________________________________________________________________
expanded_conv_10/squeeze_excite (None, 16, 16, 480)  0           multiply_10[0][0]                
                                                                 tf.math.multiply_14[0][0]        
__________________________________________________________________________________________________
expanded_conv_10/project (Conv2 (None, 16, 16, 112)  53760       expanded_conv_10/squeeze_excite/M
__________________________________________________________________________________________________
expanded_conv_10/project/BatchN (None, 16, 16, 112)  448         expanded_conv_10/project[0][0]   
__________________________________________________________________________________________________
expanded_conv_11/expand (Conv2D (None, 16, 16, 672)  75264       expanded_conv_10/project/BatchNor
__________________________________________________________________________________________________
expanded_conv_11/expand/BatchNo (None, 16, 16, 672)  2688        expanded_conv_11/expand[0][0]    
__________________________________________________________________________________________________
tf.__operators__.add_15 (TFOpLa (None, 16, 16, 672)  0           expanded_conv_11/expand/BatchNorm
__________________________________________________________________________________________________
re_lu_26 (ReLU)                 (None, 16, 16, 672)  0           tf.__operators__.add_15[0][0]    
__________________________________________________________________________________________________
tf.math.multiply_15 (TFOpLambda (None, 16, 16, 672)  0           re_lu_26[0][0]                   
__________________________________________________________________________________________________
multiply_11 (Multiply)          (None, 16, 16, 672)  0           tf.math.multiply_15[0][0]        
                                                                 expanded_conv_11/expand/BatchNorm
__________________________________________________________________________________________________
expanded_conv_11/depthwise (Dep (None, 16, 16, 672)  6048        multiply_11[0][0]                
__________________________________________________________________________________________________
expanded_conv_11/depthwise/Batc (None, 16, 16, 672)  2688        expanded_conv_11/depthwise[0][0] 
__________________________________________________________________________________________________
tf.__operators__.add_16 (TFOpLa (None, 16, 16, 672)  0           expanded_conv_11/depthwise/BatchN
__________________________________________________________________________________________________
re_lu_27 (ReLU)                 (None, 16, 16, 672)  0           tf.__operators__.add_16[0][0]    
__________________________________________________________________________________________________
tf.math.multiply_16 (TFOpLambda (None, 16, 16, 672)  0           re_lu_27[0][0]                   
__________________________________________________________________________________________________
multiply_12 (Multiply)          (None, 16, 16, 672)  0           tf.math.multiply_16[0][0]        
                                                                 expanded_conv_11/depthwise/BatchN
__________________________________________________________________________________________________
expanded_conv_11/squeeze_excite (None, 672)          0           multiply_12[0][0]                
__________________________________________________________________________________________________
reshape_4 (Reshape)             (None, 1, 1, 672)    0           expanded_conv_11/squeeze_excite/A
__________________________________________________________________________________________________
expanded_conv_11/squeeze_excite (None, 1, 1, 168)    113064      reshape_4[0][0]                  
__________________________________________________________________________________________________
expanded_conv_11/squeeze_excite (None, 1, 1, 168)    0           expanded_conv_11/squeeze_excite/C
__________________________________________________________________________________________________
expanded_conv_11/squeeze_excite (None, 1, 1, 672)    113568      expanded_conv_11/squeeze_excite/R
__________________________________________________________________________________________________
tf.__operators__.add_17 (TFOpLa (None, 1, 1, 672)    0           expanded_conv_11/squeeze_excite/C
__________________________________________________________________________________________________
re_lu_28 (ReLU)                 (None, 1, 1, 672)    0           tf.__operators__.add_17[0][0]    
__________________________________________________________________________________________________
tf.math.multiply_17 (TFOpLambda (None, 1, 1, 672)    0           re_lu_28[0][0]                   
__________________________________________________________________________________________________
expanded_conv_11/squeeze_excite (None, 16, 16, 672)  0           multiply_12[0][0]                
                                                                 tf.math.multiply_17[0][0]        
__________________________________________________________________________________________________
expanded_conv_11/project (Conv2 (None, 16, 16, 112)  75264       expanded_conv_11/squeeze_excite/M
__________________________________________________________________________________________________
expanded_conv_11/project/BatchN (None, 16, 16, 112)  448         expanded_conv_11/project[0][0]   
__________________________________________________________________________________________________
expanded_conv_11/Add (Add)      (None, 16, 16, 112)  0           expanded_conv_10/project/BatchNor
                                                                 expanded_conv_11/project/BatchNor
__________________________________________________________________________________________________
expanded_conv_12/expand (Conv2D (None, 16, 16, 672)  75264       expanded_conv_11/Add[0][0]       
__________________________________________________________________________________________________
expanded_conv_12/expand/BatchNo (None, 16, 16, 672)  2688        expanded_conv_12/expand[0][0]    
__________________________________________________________________________________________________
tf.__operators__.add_18 (TFOpLa (None, 16, 16, 672)  0           expanded_conv_12/expand/BatchNorm
__________________________________________________________________________________________________
re_lu_29 (ReLU)                 (None, 16, 16, 672)  0           tf.__operators__.add_18[0][0]    
__________________________________________________________________________________________________
tf.math.multiply_18 (TFOpLambda (None, 16, 16, 672)  0           re_lu_29[0][0]                   
__________________________________________________________________________________________________
multiply_13 (Multiply)          (None, 16, 16, 672)  0           tf.math.multiply_18[0][0]        
                                                                 expanded_conv_12/expand/BatchNorm
__________________________________________________________________________________________________
expanded_conv_12/depthwise/pad  (None, 19, 19, 672)  0           multiply_13[0][0]                
__________________________________________________________________________________________________
expanded_conv_12/depthwise (Dep (None, 8, 8, 672)    16800       expanded_conv_12/depthwise/pad[0]
__________________________________________________________________________________________________
expanded_conv_12/depthwise/Batc (None, 8, 8, 672)    2688        expanded_conv_12/depthwise[0][0] 
__________________________________________________________________________________________________
tf.__operators__.add_19 (TFOpLa (None, 8, 8, 672)    0           expanded_conv_12/depthwise/BatchN
__________________________________________________________________________________________________
re_lu_30 (ReLU)                 (None, 8, 8, 672)    0           tf.__operators__.add_19[0][0]    
__________________________________________________________________________________________________
tf.math.multiply_19 (TFOpLambda (None, 8, 8, 672)    0           re_lu_30[0][0]                   
__________________________________________________________________________________________________
multiply_14 (Multiply)          (None, 8, 8, 672)    0           tf.math.multiply_19[0][0]        
                                                                 expanded_conv_12/depthwise/BatchN
__________________________________________________________________________________________________
expanded_conv_12/squeeze_excite (None, 672)          0           multiply_14[0][0]                
__________________________________________________________________________________________________
reshape_5 (Reshape)             (None, 1, 1, 672)    0           expanded_conv_12/squeeze_excite/A
__________________________________________________________________________________________________
expanded_conv_12/squeeze_excite (None, 1, 1, 168)    113064      reshape_5[0][0]                  
__________________________________________________________________________________________________
expanded_conv_12/squeeze_excite (None, 1, 1, 168)    0           expanded_conv_12/squeeze_excite/C
__________________________________________________________________________________________________
expanded_conv_12/squeeze_excite (None, 1, 1, 672)    113568      expanded_conv_12/squeeze_excite/R
__________________________________________________________________________________________________
tf.__operators__.add_20 (TFOpLa (None, 1, 1, 672)    0           expanded_conv_12/squeeze_excite/C
__________________________________________________________________________________________________
re_lu_31 (ReLU)                 (None, 1, 1, 672)    0           tf.__operators__.add_20[0][0]    
__________________________________________________________________________________________________
tf.math.multiply_20 (TFOpLambda (None, 1, 1, 672)    0           re_lu_31[0][0]                   
__________________________________________________________________________________________________
expanded_conv_12/squeeze_excite (None, 8, 8, 672)    0           multiply_14[0][0]                
                                                                 tf.math.multiply_20[0][0]        
__________________________________________________________________________________________________
expanded_conv_12/project (Conv2 (None, 8, 8, 160)    107520      expanded_conv_12/squeeze_excite/M
__________________________________________________________________________________________________
expanded_conv_12/project/BatchN (None, 8, 8, 160)    640         expanded_conv_12/project[0][0]   
__________________________________________________________________________________________________
expanded_conv_13/expand (Conv2D (None, 8, 8, 960)    153600      expanded_conv_12/project/BatchNor
__________________________________________________________________________________________________
expanded_conv_13/expand/BatchNo (None, 8, 8, 960)    3840        expanded_conv_13/expand[0][0]    
__________________________________________________________________________________________________
tf.__operators__.add_21 (TFOpLa (None, 8, 8, 960)    0           expanded_conv_13/expand/BatchNorm
__________________________________________________________________________________________________
re_lu_32 (ReLU)                 (None, 8, 8, 960)    0           tf.__operators__.add_21[0][0]    
__________________________________________________________________________________________________
tf.math.multiply_21 (TFOpLambda (None, 8, 8, 960)    0           re_lu_32[0][0]                   
__________________________________________________________________________________________________
multiply_15 (Multiply)          (None, 8, 8, 960)    0           tf.math.multiply_21[0][0]        
                                                                 expanded_conv_13/expand/BatchNorm
__________________________________________________________________________________________________
expanded_conv_13/depthwise (Dep (None, 8, 8, 960)    24000       multiply_15[0][0]                
__________________________________________________________________________________________________
expanded_conv_13/depthwise/Batc (None, 8, 8, 960)    3840        expanded_conv_13/depthwise[0][0] 
__________________________________________________________________________________________________
tf.__operators__.add_22 (TFOpLa (None, 8, 8, 960)    0           expanded_conv_13/depthwise/BatchN
__________________________________________________________________________________________________
re_lu_33 (ReLU)                 (None, 8, 8, 960)    0           tf.__operators__.add_22[0][0]    
__________________________________________________________________________________________________
tf.math.multiply_22 (TFOpLambda (None, 8, 8, 960)    0           re_lu_33[0][0]                   
__________________________________________________________________________________________________
multiply_16 (Multiply)          (None, 8, 8, 960)    0           tf.math.multiply_22[0][0]        
                                                                 expanded_conv_13/depthwise/BatchN
__________________________________________________________________________________________________
expanded_conv_13/squeeze_excite (None, 960)          0           multiply_16[0][0]                
__________________________________________________________________________________________________
reshape_6 (Reshape)             (None, 1, 1, 960)    0           expanded_conv_13/squeeze_excite/A
__________________________________________________________________________________________________
expanded_conv_13/squeeze_excite (None, 1, 1, 240)    230640      reshape_6[0][0]                  
__________________________________________________________________________________________________
expanded_conv_13/squeeze_excite (None, 1, 1, 240)    0           expanded_conv_13/squeeze_excite/C
__________________________________________________________________________________________________
expanded_conv_13/squeeze_excite (None, 1, 1, 960)    231360      expanded_conv_13/squeeze_excite/R
__________________________________________________________________________________________________
tf.__operators__.add_23 (TFOpLa (None, 1, 1, 960)    0           expanded_conv_13/squeeze_excite/C
__________________________________________________________________________________________________
re_lu_34 (ReLU)                 (None, 1, 1, 960)    0           tf.__operators__.add_23[0][0]    
__________________________________________________________________________________________________
tf.math.multiply_23 (TFOpLambda (None, 1, 1, 960)    0           re_lu_34[0][0]                   
__________________________________________________________________________________________________
expanded_conv_13/squeeze_excite (None, 8, 8, 960)    0           multiply_16[0][0]                
                                                                 tf.math.multiply_23[0][0]        
__________________________________________________________________________________________________
expanded_conv_13/project (Conv2 (None, 8, 8, 160)    153600      expanded_conv_13/squeeze_excite/M
__________________________________________________________________________________________________
expanded_conv_13/project/BatchN (None, 8, 8, 160)    640         expanded_conv_13/project[0][0]   
__________________________________________________________________________________________________
expanded_conv_13/Add (Add)      (None, 8, 8, 160)    0           expanded_conv_12/project/BatchNor
                                                                 expanded_conv_13/project/BatchNor
__________________________________________________________________________________________________
expanded_conv_14/expand (Conv2D (None, 8, 8, 960)    153600      expanded_conv_13/Add[0][0]       
__________________________________________________________________________________________________
expanded_conv_14/expand/BatchNo (None, 8, 8, 960)    3840        expanded_conv_14/expand[0][0]    
__________________________________________________________________________________________________
tf.__operators__.add_24 (TFOpLa (None, 8, 8, 960)    0           expanded_conv_14/expand/BatchNorm
__________________________________________________________________________________________________
re_lu_35 (ReLU)                 (None, 8, 8, 960)    0           tf.__operators__.add_24[0][0]    
__________________________________________________________________________________________________
tf.math.multiply_24 (TFOpLambda (None, 8, 8, 960)    0           re_lu_35[0][0]                   
__________________________________________________________________________________________________
multiply_17 (Multiply)          (None, 8, 8, 960)    0           tf.math.multiply_24[0][0]        
                                                                 expanded_conv_14/expand/BatchNorm
__________________________________________________________________________________________________
expanded_conv_14/depthwise (Dep (None, 8, 8, 960)    24000       multiply_17[0][0]                
__________________________________________________________________________________________________
expanded_conv_14/depthwise/Batc (None, 8, 8, 960)    3840        expanded_conv_14/depthwise[0][0] 
__________________________________________________________________________________________________
tf.__operators__.add_25 (TFOpLa (None, 8, 8, 960)    0           expanded_conv_14/depthwise/BatchN
__________________________________________________________________________________________________
re_lu_36 (ReLU)                 (None, 8, 8, 960)    0           tf.__operators__.add_25[0][0]    
__________________________________________________________________________________________________
tf.math.multiply_25 (TFOpLambda (None, 8, 8, 960)    0           re_lu_36[0][0]                   
__________________________________________________________________________________________________
multiply_18 (Multiply)          (None, 8, 8, 960)    0           tf.math.multiply_25[0][0]        
                                                                 expanded_conv_14/depthwise/BatchN
__________________________________________________________________________________________________
expanded_conv_14/squeeze_excite (None, 960)          0           multiply_18[0][0]                
__________________________________________________________________________________________________
reshape_7 (Reshape)             (None, 1, 1, 960)    0           expanded_conv_14/squeeze_excite/A
__________________________________________________________________________________________________
expanded_conv_14/squeeze_excite (None, 1, 1, 240)    230640      reshape_7[0][0]                  
__________________________________________________________________________________________________
expanded_conv_14/squeeze_excite (None, 1, 1, 240)    0           expanded_conv_14/squeeze_excite/C
__________________________________________________________________________________________________
expanded_conv_14/squeeze_excite (None, 1, 1, 960)    231360      expanded_conv_14/squeeze_excite/R
__________________________________________________________________________________________________
tf.__operators__.add_26 (TFOpLa (None, 1, 1, 960)    0           expanded_conv_14/squeeze_excite/C
__________________________________________________________________________________________________
re_lu_37 (ReLU)                 (None, 1, 1, 960)    0           tf.__operators__.add_26[0][0]    
__________________________________________________________________________________________________
tf.math.multiply_26 (TFOpLambda (None, 1, 1, 960)    0           re_lu_37[0][0]                   
__________________________________________________________________________________________________
expanded_conv_14/squeeze_excite (None, 8, 8, 960)    0           multiply_18[0][0]                
                                                                 tf.math.multiply_26[0][0]        
__________________________________________________________________________________________________
expanded_conv_14/project (Conv2 (None, 8, 8, 160)    153600      expanded_conv_14/squeeze_excite/M
__________________________________________________________________________________________________
expanded_conv_14/project/BatchN (None, 8, 8, 160)    640         expanded_conv_14/project[0][0]   
__________________________________________________________________________________________________
expanded_conv_14/Add (Add)      (None, 8, 8, 160)    0           expanded_conv_13/Add[0][0]       
                                                                 expanded_conv_14/project/BatchNor
__________________________________________________________________________________________________
Conv_1 (Conv2D)                 (None, 8, 8, 960)    153600      expanded_conv_14/Add[0][0]       
__________________________________________________________________________________________________
Conv_1/BatchNorm (BatchNormaliz (None, 8, 8, 960)    3840        Conv_1[0][0]                     
__________________________________________________________________________________________________
tf.__operators__.add_27 (TFOpLa (None, 8, 8, 960)    0           Conv_1/BatchNorm[0][0]           
__________________________________________________________________________________________________
re_lu_38 (ReLU)                 (None, 8, 8, 960)    0           tf.__operators__.add_27[0][0]    
__________________________________________________________________________________________________
tf.math.multiply_27 (TFOpLambda (None, 8, 8, 960)    0           re_lu_38[0][0]                   
__________________________________________________________________________________________________
multiply_19 (Multiply)          (None, 8, 8, 960)    0           tf.math.multiply_27[0][0]        
                                                                 Conv_1/BatchNorm[0][0]           
__________________________________________________________________________________________________
Conv_2 (Conv2D)                 (None, 8, 8, 1280)   1230080     multiply_19[0][0]                
__________________________________________________________________________________________________
tf.__operators__.add_28 (TFOpLa (None, 8, 8, 1280)   0           Conv_2[0][0]                     
__________________________________________________________________________________________________
re_lu_39 (ReLU)                 (None, 8, 8, 1280)   0           tf.__operators__.add_28[0][0]    
__________________________________________________________________________________________________
tf.math.multiply_28 (TFOpLambda (None, 8, 8, 1280)   0           re_lu_39[0][0]                   
__________________________________________________________________________________________________
multiply_20 (Multiply)          (None, 8, 8, 1280)   0           tf.math.multiply_28[0][0]        
                                                                 Conv_2[0][0]                     
__________________________________________________________________________________________________
flatten (Flatten)               (None, 81920)        0           multiply_20[0][0]                
__________________________________________________________________________________________________
dense (Dense)                   (None, 1024)         83887104    flatten[0][0]                    
__________________________________________________________________________________________________
dense_1 (Dense)                 (None, 38)           38950       dense[0][0]                      
==================================================================================================
Total params: 88,152,486
Trainable params: 83,926,054
Non-trainable params: 4,226,432
__________________________________________________________________________________________________
None
Epoch 1/40
2021-01-12 18:32:40.315103: I tensorflow/stream_executor/platform/default/dso_loader.cc:49] Successfully opened dynamic library libcublas.so.11
…
