…
val_size: 10849, train_size: 43456

====> Statistics: Model name: NASNetLarge_model, epochs=100, batch_size=32, validation_split=0.2, lr=0.001, momentum=0.9, steps_per_epoch =100, feature shape= (256, 256, 3), no_classes=38, loss_function=categorical_crossentropy
Model: "model"
__________________________________________________________________________________________________
Layer (type)                    Output Shape         Param #     Connected to                     
==================================================================================================
input_5 (InputLayer)            [(None, 256, 256, 3) 0                                            
__________________________________________________________________________________________________
stem_conv1 (Conv2D)             (None, 127, 127, 96) 2592        input_5[0][0]                    
__________________________________________________________________________________________________
stem_bn1 (BatchNormalization)   (None, 127, 127, 96) 384         stem_conv1[0][0]                 
__________________________________________________________________________________________________
activation_282 (Activation)     (None, 127, 127, 96) 0           stem_bn1[0][0]                   
__________________________________________________________________________________________________
reduction_conv_1_stem_1 (Conv2D (None, 127, 127, 42) 4032        activation_282[0][0]             
__________________________________________________________________________________________________
reduction_bn_1_stem_1 (BatchNor (None, 127, 127, 42) 168         reduction_conv_1_stem_1[0][0]    
__________________________________________________________________________________________________
activation_283 (Activation)     (None, 127, 127, 42) 0           reduction_bn_1_stem_1[0][0]      
__________________________________________________________________________________________________
activation_285 (Activation)     (None, 127, 127, 96) 0           stem_bn1[0][0]                   
__________________________________________________________________________________________________
separable_conv_1_pad_reduction_ (None, 131, 131, 42) 0           activation_283[0][0]             
__________________________________________________________________________________________________
separable_conv_1_pad_reduction_ (None, 133, 133, 96) 0           activation_285[0][0]             
__________________________________________________________________________________________________
separable_conv_1_reduction_left (None, 64, 64, 42)   2814        separable_conv_1_pad_reduction_le
__________________________________________________________________________________________________
separable_conv_1_reduction_righ (None, 64, 64, 42)   8736        separable_conv_1_pad_reduction_ri
__________________________________________________________________________________________________
separable_conv_1_bn_reduction_l (None, 64, 64, 42)   168         separable_conv_1_reduction_left1_
__________________________________________________________________________________________________
separable_conv_1_bn_reduction_r (None, 64, 64, 42)   168         separable_conv_1_reduction_right1
__________________________________________________________________________________________________
activation_284 (Activation)     (None, 64, 64, 42)   0           separable_conv_1_bn_reduction_lef
__________________________________________________________________________________________________
activation_286 (Activation)     (None, 64, 64, 42)   0           separable_conv_1_bn_reduction_rig
__________________________________________________________________________________________________
separable_conv_2_reduction_left (None, 64, 64, 42)   2814        activation_284[0][0]             
__________________________________________________________________________________________________
separable_conv_2_reduction_righ (None, 64, 64, 42)   3822        activation_286[0][0]             
__________________________________________________________________________________________________
activation_287 (Activation)     (None, 127, 127, 96) 0           stem_bn1[0][0]                   
__________________________________________________________________________________________________
separable_conv_2_bn_reduction_l (None, 64, 64, 42)   168         separable_conv_2_reduction_left1_
__________________________________________________________________________________________________
separable_conv_2_bn_reduction_r (None, 64, 64, 42)   168         separable_conv_2_reduction_right1
__________________________________________________________________________________________________
separable_conv_1_pad_reduction_ (None, 133, 133, 96) 0           activation_287[0][0]             
__________________________________________________________________________________________________
activation_289 (Activation)     (None, 127, 127, 96) 0           stem_bn1[0][0]                   
__________________________________________________________________________________________________
reduction_add_1_stem_1 (Add)    (None, 64, 64, 42)   0           separable_conv_2_bn_reduction_lef
                                                                 separable_conv_2_bn_reduction_rig
__________________________________________________________________________________________________
separable_conv_1_reduction_righ (None, 64, 64, 42)   8736        separable_conv_1_pad_reduction_ri
__________________________________________________________________________________________________
separable_conv_1_pad_reduction_ (None, 131, 131, 96) 0           activation_289[0][0]             
__________________________________________________________________________________________________
activation_291 (Activation)     (None, 64, 64, 42)   0           reduction_add_1_stem_1[0][0]     
__________________________________________________________________________________________________
separable_conv_1_bn_reduction_r (None, 64, 64, 42)   168         separable_conv_1_reduction_right2
__________________________________________________________________________________________________
separable_conv_1_reduction_righ (None, 64, 64, 42)   6432        separable_conv_1_pad_reduction_ri
__________________________________________________________________________________________________
separable_conv_1_reduction_left (None, 64, 64, 42)   2142        activation_291[0][0]             
__________________________________________________________________________________________________
activation_288 (Activation)     (None, 64, 64, 42)   0           separable_conv_1_bn_reduction_rig
__________________________________________________________________________________________________
separable_conv_1_bn_reduction_r (None, 64, 64, 42)   168         separable_conv_1_reduction_right3
__________________________________________________________________________________________________
separable_conv_1_bn_reduction_l (None, 64, 64, 42)   168         separable_conv_1_reduction_left4_
__________________________________________________________________________________________________
reduction_pad_1_stem_1 (ZeroPad (None, 129, 129, 42) 0           reduction_bn_1_stem_1[0][0]      
__________________________________________________________________________________________________
separable_conv_2_reduction_righ (None, 64, 64, 42)   3822        activation_288[0][0]             
__________________________________________________________________________________________________
activation_290 (Activation)     (None, 64, 64, 42)   0           separable_conv_1_bn_reduction_rig
__________________________________________________________________________________________________
activation_292 (Activation)     (None, 64, 64, 42)   0           separable_conv_1_bn_reduction_lef
__________________________________________________________________________________________________
reduction_left2_stem_1 (MaxPool (None, 64, 64, 42)   0           reduction_pad_1_stem_1[0][0]     
__________________________________________________________________________________________________
separable_conv_2_bn_reduction_r (None, 64, 64, 42)   168         separable_conv_2_reduction_right2
__________________________________________________________________________________________________
separable_conv_2_reduction_righ (None, 64, 64, 42)   2814        activation_290[0][0]             
__________________________________________________________________________________________________
separable_conv_2_reduction_left (None, 64, 64, 42)   2142        activation_292[0][0]             
__________________________________________________________________________________________________
adjust_relu_1_stem_2 (Activatio (None, 127, 127, 96) 0           stem_bn1[0][0]                   
__________________________________________________________________________________________________
reduction_add_2_stem_1 (Add)    (None, 64, 64, 42)   0           reduction_left2_stem_1[0][0]     
                                                                 separable_conv_2_bn_reduction_rig
__________________________________________________________________________________________________
reduction_left3_stem_1 (Average (None, 64, 64, 42)   0           reduction_pad_1_stem_1[0][0]     
__________________________________________________________________________________________________
separable_conv_2_bn_reduction_r (None, 64, 64, 42)   168         separable_conv_2_reduction_right3
__________________________________________________________________________________________________
reduction_left4_stem_1 (Average (None, 64, 64, 42)   0           reduction_add_1_stem_1[0][0]     
__________________________________________________________________________________________________
separable_conv_2_bn_reduction_l (None, 64, 64, 42)   168         separable_conv_2_reduction_left4_
__________________________________________________________________________________________________
reduction_right5_stem_1 (MaxPoo (None, 64, 64, 42)   0           reduction_pad_1_stem_1[0][0]     
__________________________________________________________________________________________________
zero_padding2d_4 (ZeroPadding2D (None, 128, 128, 96) 0           adjust_relu_1_stem_2[0][0]       
__________________________________________________________________________________________________
reduction_add3_stem_1 (Add)     (None, 64, 64, 42)   0           reduction_left3_stem_1[0][0]     
                                                                 separable_conv_2_bn_reduction_rig
__________________________________________________________________________________________________
add_4 (Add)                     (None, 64, 64, 42)   0           reduction_add_2_stem_1[0][0]     
                                                                 reduction_left4_stem_1[0][0]     
__________________________________________________________________________________________________
reduction_add4_stem_1 (Add)     (None, 64, 64, 42)   0           separable_conv_2_bn_reduction_lef
                                                                 reduction_right5_stem_1[0][0]    
__________________________________________________________________________________________________
cropping2d_4 (Cropping2D)       (None, 127, 127, 96) 0           zero_padding2d_4[0][0]           
__________________________________________________________________________________________________
reduction_concat_stem_1 (Concat (None, 64, 64, 168)  0           reduction_add_2_stem_1[0][0]     
                                                                 reduction_add3_stem_1[0][0]      
                                                                 add_4[0][0]                      
                                                                 reduction_add4_stem_1[0][0]      
__________________________________________________________________________________________________
adjust_avg_pool_1_stem_2 (Avera (None, 64, 64, 96)   0           adjust_relu_1_stem_2[0][0]       
__________________________________________________________________________________________________
adjust_avg_pool_2_stem_2 (Avera (None, 64, 64, 96)   0           cropping2d_4[0][0]               
__________________________________________________________________________________________________
activation_293 (Activation)     (None, 64, 64, 168)  0           reduction_concat_stem_1[0][0]    
__________________________________________________________________________________________________
adjust_conv_1_stem_2 (Conv2D)   (None, 64, 64, 42)   4032        adjust_avg_pool_1_stem_2[0][0]   
__________________________________________________________________________________________________
adjust_conv_2_stem_2 (Conv2D)   (None, 64, 64, 42)   4032        adjust_avg_pool_2_stem_2[0][0]   
__________________________________________________________________________________________________
reduction_conv_1_stem_2 (Conv2D (None, 64, 64, 84)   14112       activation_293[0][0]             
__________________________________________________________________________________________________
concatenate_6 (Concatenate)     (None, 64, 64, 84)   0           adjust_conv_1_stem_2[0][0]       
                                                                 adjust_conv_2_stem_2[0][0]       
__________________________________________________________________________________________________
reduction_bn_1_stem_2 (BatchNor (None, 64, 64, 84)   336         reduction_conv_1_stem_2[0][0]    
__________________________________________________________________________________________________
adjust_bn_stem_2 (BatchNormaliz (None, 64, 64, 84)   336         concatenate_6[0][0]              
__________________________________________________________________________________________________
activation_294 (Activation)     (None, 64, 64, 84)   0           reduction_bn_1_stem_2[0][0]      
__________________________________________________________________________________________________
activation_296 (Activation)     (None, 64, 64, 84)   0           adjust_bn_stem_2[0][0]           
__________________________________________________________________________________________________
separable_conv_1_pad_reduction_ (None, 67, 67, 84)   0           activation_294[0][0]             
__________________________________________________________________________________________________
separable_conv_1_pad_reduction_ (None, 69, 69, 84)   0           activation_296[0][0]             
__________________________________________________________________________________________________
separable_conv_1_reduction_left (None, 32, 32, 84)   9156        separable_conv_1_pad_reduction_le
__________________________________________________________________________________________________
separable_conv_1_reduction_righ (None, 32, 32, 84)   11172       separable_conv_1_pad_reduction_ri
__________________________________________________________________________________________________
separable_conv_1_bn_reduction_l (None, 32, 32, 84)   336         separable_conv_1_reduction_left1_
__________________________________________________________________________________________________
separable_conv_1_bn_reduction_r (None, 32, 32, 84)   336         separable_conv_1_reduction_right1
__________________________________________________________________________________________________
activation_295 (Activation)     (None, 32, 32, 84)   0           separable_conv_1_bn_reduction_lef
__________________________________________________________________________________________________
activation_297 (Activation)     (None, 32, 32, 84)   0           separable_conv_1_bn_reduction_rig
__________________________________________________________________________________________________
separable_conv_2_reduction_left (None, 32, 32, 84)   9156        activation_295[0][0]             
__________________________________________________________________________________________________
separable_conv_2_reduction_righ (None, 32, 32, 84)   11172       activation_297[0][0]             
__________________________________________________________________________________________________
activation_298 (Activation)     (None, 64, 64, 84)   0           adjust_bn_stem_2[0][0]           
__________________________________________________________________________________________________
separable_conv_2_bn_reduction_l (None, 32, 32, 84)   336         separable_conv_2_reduction_left1_
__________________________________________________________________________________________________
separable_conv_2_bn_reduction_r (None, 32, 32, 84)   336         separable_conv_2_reduction_right1
__________________________________________________________________________________________________
separable_conv_1_pad_reduction_ (None, 69, 69, 84)   0           activation_298[0][0]             
__________________________________________________________________________________________________
activation_300 (Activation)     (None, 64, 64, 84)   0           adjust_bn_stem_2[0][0]           
__________________________________________________________________________________________________
reduction_add_1_stem_2 (Add)    (None, 32, 32, 84)   0           separable_conv_2_bn_reduction_lef
                                                                 separable_conv_2_bn_reduction_rig
__________________________________________________________________________________________________
separable_conv_1_reduction_righ (None, 32, 32, 84)   11172       separable_conv_1_pad_reduction_ri
__________________________________________________________________________________________________
separable_conv_1_pad_reduction_ (None, 67, 67, 84)   0           activation_300[0][0]             
__________________________________________________________________________________________________
activation_302 (Activation)     (None, 32, 32, 84)   0           reduction_add_1_stem_2[0][0]     
__________________________________________________________________________________________________
separable_conv_1_bn_reduction_r (None, 32, 32, 84)   336         separable_conv_1_reduction_right2
__________________________________________________________________________________________________
separable_conv_1_reduction_righ (None, 32, 32, 84)   9156        separable_conv_1_pad_reduction_ri
__________________________________________________________________________________________________
separable_conv_1_reduction_left (None, 32, 32, 84)   7812        activation_302[0][0]             
__________________________________________________________________________________________________
activation_299 (Activation)     (None, 32, 32, 84)   0           separable_conv_1_bn_reduction_rig
__________________________________________________________________________________________________
separable_conv_1_bn_reduction_r (None, 32, 32, 84)   336         separable_conv_1_reduction_right3
__________________________________________________________________________________________________
separable_conv_1_bn_reduction_l (None, 32, 32, 84)   336         separable_conv_1_reduction_left4_
__________________________________________________________________________________________________
reduction_pad_1_stem_2 (ZeroPad (None, 65, 65, 84)   0           reduction_bn_1_stem_2[0][0]      
__________________________________________________________________________________________________
separable_conv_2_reduction_righ (None, 32, 32, 84)   11172       activation_299[0][0]             
__________________________________________________________________________________________________
activation_301 (Activation)     (None, 32, 32, 84)   0           separable_conv_1_bn_reduction_rig
__________________________________________________________________________________________________
activation_303 (Activation)     (None, 32, 32, 84)   0           separable_conv_1_bn_reduction_lef
__________________________________________________________________________________________________
reduction_left2_stem_2 (MaxPool (None, 32, 32, 84)   0           reduction_pad_1_stem_2[0][0]     
__________________________________________________________________________________________________
separable_conv_2_bn_reduction_r (None, 32, 32, 84)   336         separable_conv_2_reduction_right2
__________________________________________________________________________________________________
separable_conv_2_reduction_righ (None, 32, 32, 84)   9156        activation_301[0][0]             
__________________________________________________________________________________________________
separable_conv_2_reduction_left (None, 32, 32, 84)   7812        activation_303[0][0]             
__________________________________________________________________________________________________
adjust_relu_1_0 (Activation)    (None, 64, 64, 168)  0           reduction_concat_stem_1[0][0]    
__________________________________________________________________________________________________
reduction_add_2_stem_2 (Add)    (None, 32, 32, 84)   0           reduction_left2_stem_2[0][0]     
                                                                 separable_conv_2_bn_reduction_rig
__________________________________________________________________________________________________
reduction_left3_stem_2 (Average (None, 32, 32, 84)   0           reduction_pad_1_stem_2[0][0]     
__________________________________________________________________________________________________
separable_conv_2_bn_reduction_r (None, 32, 32, 84)   336         separable_conv_2_reduction_right3
__________________________________________________________________________________________________
reduction_left4_stem_2 (Average (None, 32, 32, 84)   0           reduction_add_1_stem_2[0][0]     
__________________________________________________________________________________________________
separable_conv_2_bn_reduction_l (None, 32, 32, 84)   336         separable_conv_2_reduction_left4_
__________________________________________________________________________________________________
reduction_right5_stem_2 (MaxPoo (None, 32, 32, 84)   0           reduction_pad_1_stem_2[0][0]     
__________________________________________________________________________________________________
zero_padding2d_5 (ZeroPadding2D (None, 65, 65, 168)  0           adjust_relu_1_0[0][0]            
__________________________________________________________________________________________________
reduction_add3_stem_2 (Add)     (None, 32, 32, 84)   0           reduction_left3_stem_2[0][0]     
                                                                 separable_conv_2_bn_reduction_rig
__________________________________________________________________________________________________
add_5 (Add)                     (None, 32, 32, 84)   0           reduction_add_2_stem_2[0][0]     
                                                                 reduction_left4_stem_2[0][0]     
__________________________________________________________________________________________________
reduction_add4_stem_2 (Add)     (None, 32, 32, 84)   0           separable_conv_2_bn_reduction_lef
                                                                 reduction_right5_stem_2[0][0]    
__________________________________________________________________________________________________
cropping2d_5 (Cropping2D)       (None, 64, 64, 168)  0           zero_padding2d_5[0][0]           
__________________________________________________________________________________________________
reduction_concat_stem_2 (Concat (None, 32, 32, 336)  0           reduction_add_2_stem_2[0][0]     
                                                                 reduction_add3_stem_2[0][0]      
                                                                 add_5[0][0]                      
                                                                 reduction_add4_stem_2[0][0]      
__________________________________________________________________________________________________
adjust_avg_pool_1_0 (AveragePoo (None, 32, 32, 168)  0           adjust_relu_1_0[0][0]            
__________________________________________________________________________________________________
adjust_avg_pool_2_0 (AveragePoo (None, 32, 32, 168)  0           cropping2d_5[0][0]               
__________________________________________________________________________________________________
adjust_conv_1_0 (Conv2D)        (None, 32, 32, 84)   14112       adjust_avg_pool_1_0[0][0]        
__________________________________________________________________________________________________
adjust_conv_2_0 (Conv2D)        (None, 32, 32, 84)   14112       adjust_avg_pool_2_0[0][0]        
__________________________________________________________________________________________________
activation_304 (Activation)     (None, 32, 32, 336)  0           reduction_concat_stem_2[0][0]    
__________________________________________________________________________________________________
concatenate_7 (Concatenate)     (None, 32, 32, 168)  0           adjust_conv_1_0[0][0]            
                                                                 adjust_conv_2_0[0][0]            
__________________________________________________________________________________________________
normal_conv_1_0 (Conv2D)        (None, 32, 32, 168)  56448       activation_304[0][0]             
__________________________________________________________________________________________________
adjust_bn_0 (BatchNormalization (None, 32, 32, 168)  672         concatenate_7[0][0]              
__________________________________________________________________________________________________
normal_bn_1_0 (BatchNormalizati (None, 32, 32, 168)  672         normal_conv_1_0[0][0]            
__________________________________________________________________________________________________
activation_305 (Activation)     (None, 32, 32, 168)  0           normal_bn_1_0[0][0]              
__________________________________________________________________________________________________
activation_307 (Activation)     (None, 32, 32, 168)  0           adjust_bn_0[0][0]                
__________________________________________________________________________________________________
activation_309 (Activation)     (None, 32, 32, 168)  0           adjust_bn_0[0][0]                
__________________________________________________________________________________________________
activation_311 (Activation)     (None, 32, 32, 168)  0           adjust_bn_0[0][0]                
__________________________________________________________________________________________________
activation_313 (Activation)     (None, 32, 32, 168)  0           normal_bn_1_0[0][0]              
__________________________________________________________________________________________________
separable_conv_1_normal_left1_0 (None, 32, 32, 168)  32424       activation_305[0][0]             
__________________________________________________________________________________________________
separable_conv_1_normal_right1_ (None, 32, 32, 168)  29736       activation_307[0][0]             
__________________________________________________________________________________________________
separable_conv_1_normal_left2_0 (None, 32, 32, 168)  32424       activation_309[0][0]             
__________________________________________________________________________________________________
separable_conv_1_normal_right2_ (None, 32, 32, 168)  29736       activation_311[0][0]             
__________________________________________________________________________________________________
separable_conv_1_normal_left5_0 (None, 32, 32, 168)  29736       activation_313[0][0]             
__________________________________________________________________________________________________
separable_conv_1_bn_normal_left (None, 32, 32, 168)  672         separable_conv_1_normal_left1_0[0
__________________________________________________________________________________________________
separable_conv_1_bn_normal_righ (None, 32, 32, 168)  672         separable_conv_1_normal_right1_0[
__________________________________________________________________________________________________
separable_conv_1_bn_normal_left (None, 32, 32, 168)  672         separable_conv_1_normal_left2_0[0
__________________________________________________________________________________________________
separable_conv_1_bn_normal_righ (None, 32, 32, 168)  672         separable_conv_1_normal_right2_0[
__________________________________________________________________________________________________
separable_conv_1_bn_normal_left (None, 32, 32, 168)  672         separable_conv_1_normal_left5_0[0
__________________________________________________________________________________________________
activation_306 (Activation)     (None, 32, 32, 168)  0           separable_conv_1_bn_normal_left1_
__________________________________________________________________________________________________
activation_308 (Activation)     (None, 32, 32, 168)  0           separable_conv_1_bn_normal_right1
__________________________________________________________________________________________________
activation_310 (Activation)     (None, 32, 32, 168)  0           separable_conv_1_bn_normal_left2_
__________________________________________________________________________________________________
activation_312 (Activation)     (None, 32, 32, 168)  0           separable_conv_1_bn_normal_right2
__________________________________________________________________________________________________
activation_314 (Activation)     (None, 32, 32, 168)  0           separable_conv_1_bn_normal_left5_
__________________________________________________________________________________________________
separable_conv_2_normal_left1_0 (None, 32, 32, 168)  32424       activation_306[0][0]             
__________________________________________________________________________________________________
separable_conv_2_normal_right1_ (None, 32, 32, 168)  29736       activation_308[0][0]             
__________________________________________________________________________________________________
separable_conv_2_normal_left2_0 (None, 32, 32, 168)  32424       activation_310[0][0]             
__________________________________________________________________________________________________
separable_conv_2_normal_right2_ (None, 32, 32, 168)  29736       activation_312[0][0]             
__________________________________________________________________________________________________
separable_conv_2_normal_left5_0 (None, 32, 32, 168)  29736       activation_314[0][0]             
__________________________________________________________________________________________________
separable_conv_2_bn_normal_left (None, 32, 32, 168)  672         separable_conv_2_normal_left1_0[0
__________________________________________________________________________________________________
separable_conv_2_bn_normal_righ (None, 32, 32, 168)  672         separable_conv_2_normal_right1_0[
__________________________________________________________________________________________________
separable_conv_2_bn_normal_left (None, 32, 32, 168)  672         separable_conv_2_normal_left2_0[0
__________________________________________________________________________________________________
separable_conv_2_bn_normal_righ (None, 32, 32, 168)  672         separable_conv_2_normal_right2_0[
__________________________________________________________________________________________________
normal_left3_0 (AveragePooling2 (None, 32, 32, 168)  0           normal_bn_1_0[0][0]              
__________________________________________________________________________________________________
normal_left4_0 (AveragePooling2 (None, 32, 32, 168)  0           adjust_bn_0[0][0]                
__________________________________________________________________________________________________
normal_right4_0 (AveragePooling (None, 32, 32, 168)  0           adjust_bn_0[0][0]                
__________________________________________________________________________________________________
separable_conv_2_bn_normal_left (None, 32, 32, 168)  672         separable_conv_2_normal_left5_0[0
__________________________________________________________________________________________________
normal_add_1_0 (Add)            (None, 32, 32, 168)  0           separable_conv_2_bn_normal_left1_
                                                                 separable_conv_2_bn_normal_right1
__________________________________________________________________________________________________
normal_add_2_0 (Add)            (None, 32, 32, 168)  0           separable_conv_2_bn_normal_left2_
                                                                 separable_conv_2_bn_normal_right2
__________________________________________________________________________________________________
normal_add_3_0 (Add)            (None, 32, 32, 168)  0           normal_left3_0[0][0]             
                                                                 adjust_bn_0[0][0]                
__________________________________________________________________________________________________
normal_add_4_0 (Add)            (None, 32, 32, 168)  0           normal_left4_0[0][0]             
                                                                 normal_right4_0[0][0]            
__________________________________________________________________________________________________
normal_add_5_0 (Add)            (None, 32, 32, 168)  0           separable_conv_2_bn_normal_left5_
                                                                 normal_bn_1_0[0][0]              
__________________________________________________________________________________________________
normal_concat_0 (Concatenate)   (None, 32, 32, 1008) 0           adjust_bn_0[0][0]                
                                                                 normal_add_1_0[0][0]             
                                                                 normal_add_2_0[0][0]             
                                                                 normal_add_3_0[0][0]             
                                                                 normal_add_4_0[0][0]             
                                                                 normal_add_5_0[0][0]             
__________________________________________________________________________________________________
activation_315 (Activation)     (None, 32, 32, 336)  0           reduction_concat_stem_2[0][0]    
__________________________________________________________________________________________________
activation_316 (Activation)     (None, 32, 32, 1008) 0           normal_concat_0[0][0]            
__________________________________________________________________________________________________
adjust_conv_projection_1 (Conv2 (None, 32, 32, 168)  56448       activation_315[0][0]             
__________________________________________________________________________________________________
normal_conv_1_1 (Conv2D)        (None, 32, 32, 168)  169344      activation_316[0][0]             
__________________________________________________________________________________________________
adjust_bn_1 (BatchNormalization (None, 32, 32, 168)  672         adjust_conv_projection_1[0][0]   
__________________________________________________________________________________________________
normal_bn_1_1 (BatchNormalizati (None, 32, 32, 168)  672         normal_conv_1_1[0][0]            
__________________________________________________________________________________________________
activation_317 (Activation)     (None, 32, 32, 168)  0           normal_bn_1_1[0][0]              
__________________________________________________________________________________________________
activation_319 (Activation)     (None, 32, 32, 168)  0           adjust_bn_1[0][0]                
__________________________________________________________________________________________________
activation_321 (Activation)     (None, 32, 32, 168)  0           adjust_bn_1[0][0]                
__________________________________________________________________________________________________
activation_323 (Activation)     (None, 32, 32, 168)  0           adjust_bn_1[0][0]                
__________________________________________________________________________________________________
activation_325 (Activation)     (None, 32, 32, 168)  0           normal_bn_1_1[0][0]              
__________________________________________________________________________________________________
separable_conv_1_normal_left1_1 (None, 32, 32, 168)  32424       activation_317[0][0]             
__________________________________________________________________________________________________
separable_conv_1_normal_right1_ (None, 32, 32, 168)  29736       activation_319[0][0]             
__________________________________________________________________________________________________
separable_conv_1_normal_left2_1 (None, 32, 32, 168)  32424       activation_321[0][0]             
__________________________________________________________________________________________________
separable_conv_1_normal_right2_ (None, 32, 32, 168)  29736       activation_323[0][0]             
__________________________________________________________________________________________________
separable_conv_1_normal_left5_1 (None, 32, 32, 168)  29736       activation_325[0][0]             
__________________________________________________________________________________________________
separable_conv_1_bn_normal_left (None, 32, 32, 168)  672         separable_conv_1_normal_left1_1[0
__________________________________________________________________________________________________
separable_conv_1_bn_normal_righ (None, 32, 32, 168)  672         separable_conv_1_normal_right1_1[
__________________________________________________________________________________________________
separable_conv_1_bn_normal_left (None, 32, 32, 168)  672         separable_conv_1_normal_left2_1[0
__________________________________________________________________________________________________
separable_conv_1_bn_normal_righ (None, 32, 32, 168)  672         separable_conv_1_normal_right2_1[
__________________________________________________________________________________________________
separable_conv_1_bn_normal_left (None, 32, 32, 168)  672         separable_conv_1_normal_left5_1[0
__________________________________________________________________________________________________
activation_318 (Activation)     (None, 32, 32, 168)  0           separable_conv_1_bn_normal_left1_
__________________________________________________________________________________________________
activation_320 (Activation)     (None, 32, 32, 168)  0           separable_conv_1_bn_normal_right1
__________________________________________________________________________________________________
activation_322 (Activation)     (None, 32, 32, 168)  0           separable_conv_1_bn_normal_left2_
__________________________________________________________________________________________________
activation_324 (Activation)     (None, 32, 32, 168)  0           separable_conv_1_bn_normal_right2
__________________________________________________________________________________________________
activation_326 (Activation)     (None, 32, 32, 168)  0           separable_conv_1_bn_normal_left5_
__________________________________________________________________________________________________
separable_conv_2_normal_left1_1 (None, 32, 32, 168)  32424       activation_318[0][0]             
__________________________________________________________________________________________________
separable_conv_2_normal_right1_ (None, 32, 32, 168)  29736       activation_320[0][0]             
__________________________________________________________________________________________________
separable_conv_2_normal_left2_1 (None, 32, 32, 168)  32424       activation_322[0][0]             
__________________________________________________________________________________________________
separable_conv_2_normal_right2_ (None, 32, 32, 168)  29736       activation_324[0][0]             
__________________________________________________________________________________________________
separable_conv_2_normal_left5_1 (None, 32, 32, 168)  29736       activation_326[0][0]             
__________________________________________________________________________________________________
separable_conv_2_bn_normal_left (None, 32, 32, 168)  672         separable_conv_2_normal_left1_1[0
__________________________________________________________________________________________________
separable_conv_2_bn_normal_righ (None, 32, 32, 168)  672         separable_conv_2_normal_right1_1[
__________________________________________________________________________________________________
separable_conv_2_bn_normal_left (None, 32, 32, 168)  672         separable_conv_2_normal_left2_1[0
__________________________________________________________________________________________________
separable_conv_2_bn_normal_righ (None, 32, 32, 168)  672         separable_conv_2_normal_right2_1[
__________________________________________________________________________________________________
normal_left3_1 (AveragePooling2 (None, 32, 32, 168)  0           normal_bn_1_1[0][0]              
__________________________________________________________________________________________________
normal_left4_1 (AveragePooling2 (None, 32, 32, 168)  0           adjust_bn_1[0][0]                
__________________________________________________________________________________________________
normal_right4_1 (AveragePooling (None, 32, 32, 168)  0           adjust_bn_1[0][0]                
__________________________________________________________________________________________________
separable_conv_2_bn_normal_left (None, 32, 32, 168)  672         separable_conv_2_normal_left5_1[0
__________________________________________________________________________________________________
normal_add_1_1 (Add)            (None, 32, 32, 168)  0           separable_conv_2_bn_normal_left1_
                                                                 separable_conv_2_bn_normal_right1
__________________________________________________________________________________________________
normal_add_2_1 (Add)            (None, 32, 32, 168)  0           separable_conv_2_bn_normal_left2_
                                                                 separable_conv_2_bn_normal_right2
__________________________________________________________________________________________________
normal_add_3_1 (Add)            (None, 32, 32, 168)  0           normal_left3_1[0][0]             
                                                                 adjust_bn_1[0][0]                
__________________________________________________________________________________________________
normal_add_4_1 (Add)            (None, 32, 32, 168)  0           normal_left4_1[0][0]             
                                                                 normal_right4_1[0][0]            
__________________________________________________________________________________________________
normal_add_5_1 (Add)            (None, 32, 32, 168)  0           separable_conv_2_bn_normal_left5_
                                                                 normal_bn_1_1[0][0]              
__________________________________________________________________________________________________
normal_concat_1 (Concatenate)   (None, 32, 32, 1008) 0           adjust_bn_1[0][0]                
                                                                 normal_add_1_1[0][0]             
                                                                 normal_add_2_1[0][0]             
                                                                 normal_add_3_1[0][0]             
                                                                 normal_add_4_1[0][0]             
                                                                 normal_add_5_1[0][0]             
__________________________________________________________________________________________________
activation_327 (Activation)     (None, 32, 32, 1008) 0           normal_concat_0[0][0]            
__________________________________________________________________________________________________
activation_328 (Activation)     (None, 32, 32, 1008) 0           normal_concat_1[0][0]            
__________________________________________________________________________________________________
adjust_conv_projection_2 (Conv2 (None, 32, 32, 168)  169344      activation_327[0][0]             
__________________________________________________________________________________________________
normal_conv_1_2 (Conv2D)        (None, 32, 32, 168)  169344      activation_328[0][0]             
__________________________________________________________________________________________________
adjust_bn_2 (BatchNormalization (None, 32, 32, 168)  672         adjust_conv_projection_2[0][0]   
__________________________________________________________________________________________________
normal_bn_1_2 (BatchNormalizati (None, 32, 32, 168)  672         normal_conv_1_2[0][0]            
__________________________________________________________________________________________________
activation_329 (Activation)     (None, 32, 32, 168)  0           normal_bn_1_2[0][0]              
__________________________________________________________________________________________________
activation_331 (Activation)     (None, 32, 32, 168)  0           adjust_bn_2[0][0]                
__________________________________________________________________________________________________
activation_333 (Activation)     (None, 32, 32, 168)  0           adjust_bn_2[0][0]                
__________________________________________________________________________________________________
activation_335 (Activation)     (None, 32, 32, 168)  0           adjust_bn_2[0][0]                
__________________________________________________________________________________________________
activation_337 (Activation)     (None, 32, 32, 168)  0           normal_bn_1_2[0][0]              
__________________________________________________________________________________________________
separable_conv_1_normal_left1_2 (None, 32, 32, 168)  32424       activation_329[0][0]             
__________________________________________________________________________________________________
separable_conv_1_normal_right1_ (None, 32, 32, 168)  29736       activation_331[0][0]             
__________________________________________________________________________________________________
separable_conv_1_normal_left2_2 (None, 32, 32, 168)  32424       activation_333[0][0]             
__________________________________________________________________________________________________
separable_conv_1_normal_right2_ (None, 32, 32, 168)  29736       activation_335[0][0]             
__________________________________________________________________________________________________
separable_conv_1_normal_left5_2 (None, 32, 32, 168)  29736       activation_337[0][0]             
__________________________________________________________________________________________________
separable_conv_1_bn_normal_left (None, 32, 32, 168)  672         separable_conv_1_normal_left1_2[0
__________________________________________________________________________________________________
separable_conv_1_bn_normal_righ (None, 32, 32, 168)  672         separable_conv_1_normal_right1_2[
__________________________________________________________________________________________________
separable_conv_1_bn_normal_left (None, 32, 32, 168)  672         separable_conv_1_normal_left2_2[0
__________________________________________________________________________________________________
separable_conv_1_bn_normal_righ (None, 32, 32, 168)  672         separable_conv_1_normal_right2_2[
__________________________________________________________________________________________________
separable_conv_1_bn_normal_left (None, 32, 32, 168)  672         separable_conv_1_normal_left5_2[0
__________________________________________________________________________________________________
activation_330 (Activation)     (None, 32, 32, 168)  0           separable_conv_1_bn_normal_left1_
__________________________________________________________________________________________________
activation_332 (Activation)     (None, 32, 32, 168)  0           separable_conv_1_bn_normal_right1
__________________________________________________________________________________________________
activation_334 (Activation)     (None, 32, 32, 168)  0           separable_conv_1_bn_normal_left2_
__________________________________________________________________________________________________
activation_336 (Activation)     (None, 32, 32, 168)  0           separable_conv_1_bn_normal_right2
__________________________________________________________________________________________________
activation_338 (Activation)     (None, 32, 32, 168)  0           separable_conv_1_bn_normal_left5_
__________________________________________________________________________________________________
separable_conv_2_normal_left1_2 (None, 32, 32, 168)  32424       activation_330[0][0]             
__________________________________________________________________________________________________
separable_conv_2_normal_right1_ (None, 32, 32, 168)  29736       activation_332[0][0]             
__________________________________________________________________________________________________
separable_conv_2_normal_left2_2 (None, 32, 32, 168)  32424       activation_334[0][0]             
__________________________________________________________________________________________________
separable_conv_2_normal_right2_ (None, 32, 32, 168)  29736       activation_336[0][0]             
__________________________________________________________________________________________________
separable_conv_2_normal_left5_2 (None, 32, 32, 168)  29736       activation_338[0][0]             
__________________________________________________________________________________________________
separable_conv_2_bn_normal_left (None, 32, 32, 168)  672         separable_conv_2_normal_left1_2[0
__________________________________________________________________________________________________
separable_conv_2_bn_normal_righ (None, 32, 32, 168)  672         separable_conv_2_normal_right1_2[
__________________________________________________________________________________________________
separable_conv_2_bn_normal_left (None, 32, 32, 168)  672         separable_conv_2_normal_left2_2[0
__________________________________________________________________________________________________
separable_conv_2_bn_normal_righ (None, 32, 32, 168)  672         separable_conv_2_normal_right2_2[
__________________________________________________________________________________________________
normal_left3_2 (AveragePooling2 (None, 32, 32, 168)  0           normal_bn_1_2[0][0]              
__________________________________________________________________________________________________
normal_left4_2 (AveragePooling2 (None, 32, 32, 168)  0           adjust_bn_2[0][0]                
__________________________________________________________________________________________________
normal_right4_2 (AveragePooling (None, 32, 32, 168)  0           adjust_bn_2[0][0]                
__________________________________________________________________________________________________
separable_conv_2_bn_normal_left (None, 32, 32, 168)  672         separable_conv_2_normal_left5_2[0
__________________________________________________________________________________________________
normal_add_1_2 (Add)            (None, 32, 32, 168)  0           separable_conv_2_bn_normal_left1_
                                                                 separable_conv_2_bn_normal_right1
__________________________________________________________________________________________________
normal_add_2_2 (Add)            (None, 32, 32, 168)  0           separable_conv_2_bn_normal_left2_
                                                                 separable_conv_2_bn_normal_right2
__________________________________________________________________________________________________
normal_add_3_2 (Add)            (None, 32, 32, 168)  0           normal_left3_2[0][0]             
                                                                 adjust_bn_2[0][0]                
__________________________________________________________________________________________________
normal_add_4_2 (Add)            (None, 32, 32, 168)  0           normal_left4_2[0][0]             
                                                                 normal_right4_2[0][0]            
__________________________________________________________________________________________________
normal_add_5_2 (Add)            (None, 32, 32, 168)  0           separable_conv_2_bn_normal_left5_
                                                                 normal_bn_1_2[0][0]              
__________________________________________________________________________________________________
normal_concat_2 (Concatenate)   (None, 32, 32, 1008) 0           adjust_bn_2[0][0]                
                                                                 normal_add_1_2[0][0]             
                                                                 normal_add_2_2[0][0]             
                                                                 normal_add_3_2[0][0]             
                                                                 normal_add_4_2[0][0]             
                                                                 normal_add_5_2[0][0]             
__________________________________________________________________________________________________
activation_339 (Activation)     (None, 32, 32, 1008) 0           normal_concat_1[0][0]            
__________________________________________________________________________________________________
activation_340 (Activation)     (None, 32, 32, 1008) 0           normal_concat_2[0][0]            
__________________________________________________________________________________________________
adjust_conv_projection_3 (Conv2 (None, 32, 32, 168)  169344      activation_339[0][0]             
__________________________________________________________________________________________________
normal_conv_1_3 (Conv2D)        (None, 32, 32, 168)  169344      activation_340[0][0]             
__________________________________________________________________________________________________
adjust_bn_3 (BatchNormalization (None, 32, 32, 168)  672         adjust_conv_projection_3[0][0]   
__________________________________________________________________________________________________
normal_bn_1_3 (BatchNormalizati (None, 32, 32, 168)  672         normal_conv_1_3[0][0]            
__________________________________________________________________________________________________
activation_341 (Activation)     (None, 32, 32, 168)  0           normal_bn_1_3[0][0]              
__________________________________________________________________________________________________
activation_343 (Activation)     (None, 32, 32, 168)  0           adjust_bn_3[0][0]                
__________________________________________________________________________________________________
activation_345 (Activation)     (None, 32, 32, 168)  0           adjust_bn_3[0][0]                
__________________________________________________________________________________________________
activation_347 (Activation)     (None, 32, 32, 168)  0           adjust_bn_3[0][0]                
__________________________________________________________________________________________________
activation_349 (Activation)     (None, 32, 32, 168)  0           normal_bn_1_3[0][0]              
__________________________________________________________________________________________________
separable_conv_1_normal_left1_3 (None, 32, 32, 168)  32424       activation_341[0][0]             
__________________________________________________________________________________________________
separable_conv_1_normal_right1_ (None, 32, 32, 168)  29736       activation_343[0][0]             
__________________________________________________________________________________________________
separable_conv_1_normal_left2_3 (None, 32, 32, 168)  32424       activation_345[0][0]             
__________________________________________________________________________________________________
separable_conv_1_normal_right2_ (None, 32, 32, 168)  29736       activation_347[0][0]             
__________________________________________________________________________________________________
separable_conv_1_normal_left5_3 (None, 32, 32, 168)  29736       activation_349[0][0]             
__________________________________________________________________________________________________
separable_conv_1_bn_normal_left (None, 32, 32, 168)  672         separable_conv_1_normal_left1_3[0
__________________________________________________________________________________________________
separable_conv_1_bn_normal_righ (None, 32, 32, 168)  672         separable_conv_1_normal_right1_3[
__________________________________________________________________________________________________
separable_conv_1_bn_normal_left (None, 32, 32, 168)  672         separable_conv_1_normal_left2_3[0
__________________________________________________________________________________________________
separable_conv_1_bn_normal_righ (None, 32, 32, 168)  672         separable_conv_1_normal_right2_3[
__________________________________________________________________________________________________
separable_conv_1_bn_normal_left (None, 32, 32, 168)  672         separable_conv_1_normal_left5_3[0
__________________________________________________________________________________________________
activation_342 (Activation)     (None, 32, 32, 168)  0           separable_conv_1_bn_normal_left1_
__________________________________________________________________________________________________
activation_344 (Activation)     (None, 32, 32, 168)  0           separable_conv_1_bn_normal_right1
__________________________________________________________________________________________________
activation_346 (Activation)     (None, 32, 32, 168)  0           separable_conv_1_bn_normal_left2_
__________________________________________________________________________________________________
activation_348 (Activation)     (None, 32, 32, 168)  0           separable_conv_1_bn_normal_right2
__________________________________________________________________________________________________
activation_350 (Activation)     (None, 32, 32, 168)  0           separable_conv_1_bn_normal_left5_
__________________________________________________________________________________________________
separable_conv_2_normal_left1_3 (None, 32, 32, 168)  32424       activation_342[0][0]             
__________________________________________________________________________________________________
separable_conv_2_normal_right1_ (None, 32, 32, 168)  29736       activation_344[0][0]             
__________________________________________________________________________________________________
separable_conv_2_normal_left2_3 (None, 32, 32, 168)  32424       activation_346[0][0]             
__________________________________________________________________________________________________
separable_conv_2_normal_right2_ (None, 32, 32, 168)  29736       activation_348[0][0]             
__________________________________________________________________________________________________
separable_conv_2_normal_left5_3 (None, 32, 32, 168)  29736       activation_350[0][0]             
__________________________________________________________________________________________________
separable_conv_2_bn_normal_left (None, 32, 32, 168)  672         separable_conv_2_normal_left1_3[0
__________________________________________________________________________________________________
separable_conv_2_bn_normal_righ (None, 32, 32, 168)  672         separable_conv_2_normal_right1_3[
__________________________________________________________________________________________________
separable_conv_2_bn_normal_left (None, 32, 32, 168)  672         separable_conv_2_normal_left2_3[0
__________________________________________________________________________________________________
separable_conv_2_bn_normal_righ (None, 32, 32, 168)  672         separable_conv_2_normal_right2_3[
__________________________________________________________________________________________________
normal_left3_3 (AveragePooling2 (None, 32, 32, 168)  0           normal_bn_1_3[0][0]              
__________________________________________________________________________________________________
normal_left4_3 (AveragePooling2 (None, 32, 32, 168)  0           adjust_bn_3[0][0]                
__________________________________________________________________________________________________
normal_right4_3 (AveragePooling (None, 32, 32, 168)  0           adjust_bn_3[0][0]                
__________________________________________________________________________________________________
separable_conv_2_bn_normal_left (None, 32, 32, 168)  672         separable_conv_2_normal_left5_3[0
__________________________________________________________________________________________________
normal_add_1_3 (Add)            (None, 32, 32, 168)  0           separable_conv_2_bn_normal_left1_
                                                                 separable_conv_2_bn_normal_right1
__________________________________________________________________________________________________
normal_add_2_3 (Add)            (None, 32, 32, 168)  0           separable_conv_2_bn_normal_left2_
                                                                 separable_conv_2_bn_normal_right2
__________________________________________________________________________________________________
normal_add_3_3 (Add)            (None, 32, 32, 168)  0           normal_left3_3[0][0]             
                                                                 adjust_bn_3[0][0]                
__________________________________________________________________________________________________
normal_add_4_3 (Add)            (None, 32, 32, 168)  0           normal_left4_3[0][0]             
                                                                 normal_right4_3[0][0]            
__________________________________________________________________________________________________
normal_add_5_3 (Add)            (None, 32, 32, 168)  0           separable_conv_2_bn_normal_left5_
                                                                 normal_bn_1_3[0][0]              
__________________________________________________________________________________________________
normal_concat_3 (Concatenate)   (None, 32, 32, 1008) 0           adjust_bn_3[0][0]                
                                                                 normal_add_1_3[0][0]             
                                                                 normal_add_2_3[0][0]             
                                                                 normal_add_3_3[0][0]             
                                                                 normal_add_4_3[0][0]             
                                                                 normal_add_5_3[0][0]             
__________________________________________________________________________________________________
activation_351 (Activation)     (None, 32, 32, 1008) 0           normal_concat_2[0][0]            
__________________________________________________________________________________________________
activation_352 (Activation)     (None, 32, 32, 1008) 0           normal_concat_3[0][0]            
__________________________________________________________________________________________________
adjust_conv_projection_4 (Conv2 (None, 32, 32, 168)  169344      activation_351[0][0]             
__________________________________________________________________________________________________
normal_conv_1_4 (Conv2D)        (None, 32, 32, 168)  169344      activation_352[0][0]             
__________________________________________________________________________________________________
adjust_bn_4 (BatchNormalization (None, 32, 32, 168)  672         adjust_conv_projection_4[0][0]   
__________________________________________________________________________________________________
normal_bn_1_4 (BatchNormalizati (None, 32, 32, 168)  672         normal_conv_1_4[0][0]            
__________________________________________________________________________________________________
activation_353 (Activation)     (None, 32, 32, 168)  0           normal_bn_1_4[0][0]              
__________________________________________________________________________________________________
activation_355 (Activation)     (None, 32, 32, 168)  0           adjust_bn_4[0][0]                
__________________________________________________________________________________________________
activation_357 (Activation)     (None, 32, 32, 168)  0           adjust_bn_4[0][0]                
__________________________________________________________________________________________________
activation_359 (Activation)     (None, 32, 32, 168)  0           adjust_bn_4[0][0]                
__________________________________________________________________________________________________
activation_361 (Activation)     (None, 32, 32, 168)  0           normal_bn_1_4[0][0]              
__________________________________________________________________________________________________
separable_conv_1_normal_left1_4 (None, 32, 32, 168)  32424       activation_353[0][0]             
__________________________________________________________________________________________________
separable_conv_1_normal_right1_ (None, 32, 32, 168)  29736       activation_355[0][0]             
__________________________________________________________________________________________________
separable_conv_1_normal_left2_4 (None, 32, 32, 168)  32424       activation_357[0][0]             
__________________________________________________________________________________________________
separable_conv_1_normal_right2_ (None, 32, 32, 168)  29736       activation_359[0][0]             
__________________________________________________________________________________________________
separable_conv_1_normal_left5_4 (None, 32, 32, 168)  29736       activation_361[0][0]             
__________________________________________________________________________________________________
separable_conv_1_bn_normal_left (None, 32, 32, 168)  672         separable_conv_1_normal_left1_4[0
__________________________________________________________________________________________________
separable_conv_1_bn_normal_righ (None, 32, 32, 168)  672         separable_conv_1_normal_right1_4[
__________________________________________________________________________________________________
separable_conv_1_bn_normal_left (None, 32, 32, 168)  672         separable_conv_1_normal_left2_4[0
__________________________________________________________________________________________________
separable_conv_1_bn_normal_righ (None, 32, 32, 168)  672         separable_conv_1_normal_right2_4[
__________________________________________________________________________________________________
separable_conv_1_bn_normal_left (None, 32, 32, 168)  672         separable_conv_1_normal_left5_4[0
__________________________________________________________________________________________________
activation_354 (Activation)     (None, 32, 32, 168)  0           separable_conv_1_bn_normal_left1_
__________________________________________________________________________________________________
activation_356 (Activation)     (None, 32, 32, 168)  0           separable_conv_1_bn_normal_right1
__________________________________________________________________________________________________
activation_358 (Activation)     (None, 32, 32, 168)  0           separable_conv_1_bn_normal_left2_
__________________________________________________________________________________________________
activation_360 (Activation)     (None, 32, 32, 168)  0           separable_conv_1_bn_normal_right2
__________________________________________________________________________________________________
activation_362 (Activation)     (None, 32, 32, 168)  0           separable_conv_1_bn_normal_left5_
__________________________________________________________________________________________________
separable_conv_2_normal_left1_4 (None, 32, 32, 168)  32424       activation_354[0][0]             
__________________________________________________________________________________________________
separable_conv_2_normal_right1_ (None, 32, 32, 168)  29736       activation_356[0][0]             
__________________________________________________________________________________________________
separable_conv_2_normal_left2_4 (None, 32, 32, 168)  32424       activation_358[0][0]             
__________________________________________________________________________________________________
separable_conv_2_normal_right2_ (None, 32, 32, 168)  29736       activation_360[0][0]             
__________________________________________________________________________________________________
separable_conv_2_normal_left5_4 (None, 32, 32, 168)  29736       activation_362[0][0]             
__________________________________________________________________________________________________
separable_conv_2_bn_normal_left (None, 32, 32, 168)  672         separable_conv_2_normal_left1_4[0
__________________________________________________________________________________________________
separable_conv_2_bn_normal_righ (None, 32, 32, 168)  672         separable_conv_2_normal_right1_4[
__________________________________________________________________________________________________
separable_conv_2_bn_normal_left (None, 32, 32, 168)  672         separable_conv_2_normal_left2_4[0
__________________________________________________________________________________________________
separable_conv_2_bn_normal_righ (None, 32, 32, 168)  672         separable_conv_2_normal_right2_4[
__________________________________________________________________________________________________
normal_left3_4 (AveragePooling2 (None, 32, 32, 168)  0           normal_bn_1_4[0][0]              
__________________________________________________________________________________________________
normal_left4_4 (AveragePooling2 (None, 32, 32, 168)  0           adjust_bn_4[0][0]                
__________________________________________________________________________________________________
normal_right4_4 (AveragePooling (None, 32, 32, 168)  0           adjust_bn_4[0][0]                
__________________________________________________________________________________________________
separable_conv_2_bn_normal_left (None, 32, 32, 168)  672         separable_conv_2_normal_left5_4[0
__________________________________________________________________________________________________
normal_add_1_4 (Add)            (None, 32, 32, 168)  0           separable_conv_2_bn_normal_left1_
                                                                 separable_conv_2_bn_normal_right1
__________________________________________________________________________________________________
normal_add_2_4 (Add)            (None, 32, 32, 168)  0           separable_conv_2_bn_normal_left2_
                                                                 separable_conv_2_bn_normal_right2
__________________________________________________________________________________________________
normal_add_3_4 (Add)            (None, 32, 32, 168)  0           normal_left3_4[0][0]             
                                                                 adjust_bn_4[0][0]                
__________________________________________________________________________________________________
normal_add_4_4 (Add)            (None, 32, 32, 168)  0           normal_left4_4[0][0]             
                                                                 normal_right4_4[0][0]            
__________________________________________________________________________________________________
normal_add_5_4 (Add)            (None, 32, 32, 168)  0           separable_conv_2_bn_normal_left5_
                                                                 normal_bn_1_4[0][0]              
__________________________________________________________________________________________________
normal_concat_4 (Concatenate)   (None, 32, 32, 1008) 0           adjust_bn_4[0][0]                
                                                                 normal_add_1_4[0][0]             
                                                                 normal_add_2_4[0][0]             
                                                                 normal_add_3_4[0][0]             
                                                                 normal_add_4_4[0][0]             
                                                                 normal_add_5_4[0][0]             
__________________________________________________________________________________________________
activation_363 (Activation)     (None, 32, 32, 1008) 0           normal_concat_3[0][0]            
__________________________________________________________________________________________________
activation_364 (Activation)     (None, 32, 32, 1008) 0           normal_concat_4[0][0]            
__________________________________________________________________________________________________
adjust_conv_projection_5 (Conv2 (None, 32, 32, 168)  169344      activation_363[0][0]             
__________________________________________________________________________________________________
normal_conv_1_5 (Conv2D)        (None, 32, 32, 168)  169344      activation_364[0][0]             
__________________________________________________________________________________________________
adjust_bn_5 (BatchNormalization (None, 32, 32, 168)  672         adjust_conv_projection_5[0][0]   
__________________________________________________________________________________________________
normal_bn_1_5 (BatchNormalizati (None, 32, 32, 168)  672         normal_conv_1_5[0][0]            
__________________________________________________________________________________________________
activation_365 (Activation)     (None, 32, 32, 168)  0           normal_bn_1_5[0][0]              
__________________________________________________________________________________________________
activation_367 (Activation)     (None, 32, 32, 168)  0           adjust_bn_5[0][0]                
__________________________________________________________________________________________________
activation_369 (Activation)     (None, 32, 32, 168)  0           adjust_bn_5[0][0]                
__________________________________________________________________________________________________
activation_371 (Activation)     (None, 32, 32, 168)  0           adjust_bn_5[0][0]                
__________________________________________________________________________________________________
activation_373 (Activation)     (None, 32, 32, 168)  0           normal_bn_1_5[0][0]              
__________________________________________________________________________________________________
separable_conv_1_normal_left1_5 (None, 32, 32, 168)  32424       activation_365[0][0]             
__________________________________________________________________________________________________
separable_conv_1_normal_right1_ (None, 32, 32, 168)  29736       activation_367[0][0]             
__________________________________________________________________________________________________
separable_conv_1_normal_left2_5 (None, 32, 32, 168)  32424       activation_369[0][0]             
__________________________________________________________________________________________________
separable_conv_1_normal_right2_ (None, 32, 32, 168)  29736       activation_371[0][0]             
__________________________________________________________________________________________________
separable_conv_1_normal_left5_5 (None, 32, 32, 168)  29736       activation_373[0][0]             
__________________________________________________________________________________________________
separable_conv_1_bn_normal_left (None, 32, 32, 168)  672         separable_conv_1_normal_left1_5[0
__________________________________________________________________________________________________
separable_conv_1_bn_normal_righ (None, 32, 32, 168)  672         separable_conv_1_normal_right1_5[
__________________________________________________________________________________________________
separable_conv_1_bn_normal_left (None, 32, 32, 168)  672         separable_conv_1_normal_left2_5[0
__________________________________________________________________________________________________
separable_conv_1_bn_normal_righ (None, 32, 32, 168)  672         separable_conv_1_normal_right2_5[
__________________________________________________________________________________________________
separable_conv_1_bn_normal_left (None, 32, 32, 168)  672         separable_conv_1_normal_left5_5[0
__________________________________________________________________________________________________
activation_366 (Activation)     (None, 32, 32, 168)  0           separable_conv_1_bn_normal_left1_
__________________________________________________________________________________________________
activation_368 (Activation)     (None, 32, 32, 168)  0           separable_conv_1_bn_normal_right1
__________________________________________________________________________________________________
activation_370 (Activation)     (None, 32, 32, 168)  0           separable_conv_1_bn_normal_left2_
__________________________________________________________________________________________________
activation_372 (Activation)     (None, 32, 32, 168)  0           separable_conv_1_bn_normal_right2
__________________________________________________________________________________________________
activation_374 (Activation)     (None, 32, 32, 168)  0           separable_conv_1_bn_normal_left5_
__________________________________________________________________________________________________
separable_conv_2_normal_left1_5 (None, 32, 32, 168)  32424       activation_366[0][0]             
__________________________________________________________________________________________________
separable_conv_2_normal_right1_ (None, 32, 32, 168)  29736       activation_368[0][0]             
__________________________________________________________________________________________________
separable_conv_2_normal_left2_5 (None, 32, 32, 168)  32424       activation_370[0][0]             
__________________________________________________________________________________________________
separable_conv_2_normal_right2_ (None, 32, 32, 168)  29736       activation_372[0][0]             
__________________________________________________________________________________________________
separable_conv_2_normal_left5_5 (None, 32, 32, 168)  29736       activation_374[0][0]             
__________________________________________________________________________________________________
separable_conv_2_bn_normal_left (None, 32, 32, 168)  672         separable_conv_2_normal_left1_5[0
__________________________________________________________________________________________________
separable_conv_2_bn_normal_righ (None, 32, 32, 168)  672         separable_conv_2_normal_right1_5[
__________________________________________________________________________________________________
separable_conv_2_bn_normal_left (None, 32, 32, 168)  672         separable_conv_2_normal_left2_5[0
__________________________________________________________________________________________________
separable_conv_2_bn_normal_righ (None, 32, 32, 168)  672         separable_conv_2_normal_right2_5[
__________________________________________________________________________________________________
normal_left3_5 (AveragePooling2 (None, 32, 32, 168)  0           normal_bn_1_5[0][0]              
__________________________________________________________________________________________________
normal_left4_5 (AveragePooling2 (None, 32, 32, 168)  0           adjust_bn_5[0][0]                
__________________________________________________________________________________________________
normal_right4_5 (AveragePooling (None, 32, 32, 168)  0           adjust_bn_5[0][0]                
__________________________________________________________________________________________________
separable_conv_2_bn_normal_left (None, 32, 32, 168)  672         separable_conv_2_normal_left5_5[0
__________________________________________________________________________________________________
normal_add_1_5 (Add)            (None, 32, 32, 168)  0           separable_conv_2_bn_normal_left1_
                                                                 separable_conv_2_bn_normal_right1
__________________________________________________________________________________________________
normal_add_2_5 (Add)            (None, 32, 32, 168)  0           separable_conv_2_bn_normal_left2_
                                                                 separable_conv_2_bn_normal_right2
__________________________________________________________________________________________________
normal_add_3_5 (Add)            (None, 32, 32, 168)  0           normal_left3_5[0][0]             
                                                                 adjust_bn_5[0][0]                
__________________________________________________________________________________________________
normal_add_4_5 (Add)            (None, 32, 32, 168)  0           normal_left4_5[0][0]             
                                                                 normal_right4_5[0][0]            
__________________________________________________________________________________________________
normal_add_5_5 (Add)            (None, 32, 32, 168)  0           separable_conv_2_bn_normal_left5_
                                                                 normal_bn_1_5[0][0]              
__________________________________________________________________________________________________
normal_concat_5 (Concatenate)   (None, 32, 32, 1008) 0           adjust_bn_5[0][0]                
                                                                 normal_add_1_5[0][0]             
                                                                 normal_add_2_5[0][0]             
                                                                 normal_add_3_5[0][0]             
                                                                 normal_add_4_5[0][0]             
                                                                 normal_add_5_5[0][0]             
__________________________________________________________________________________________________
activation_376 (Activation)     (None, 32, 32, 1008) 0           normal_concat_5[0][0]            
__________________________________________________________________________________________________
activation_375 (Activation)     (None, 32, 32, 1008) 0           normal_concat_4[0][0]            
__________________________________________________________________________________________________
reduction_conv_1_reduce_6 (Conv (None, 32, 32, 336)  338688      activation_376[0][0]             
__________________________________________________________________________________________________
adjust_conv_projection_reduce_6 (None, 32, 32, 336)  338688      activation_375[0][0]             
__________________________________________________________________________________________________
reduction_bn_1_reduce_6 (BatchN (None, 32, 32, 336)  1344        reduction_conv_1_reduce_6[0][0]  
__________________________________________________________________________________________________
adjust_bn_reduce_6 (BatchNormal (None, 32, 32, 336)  1344        adjust_conv_projection_reduce_6[0
__________________________________________________________________________________________________
activation_377 (Activation)     (None, 32, 32, 336)  0           reduction_bn_1_reduce_6[0][0]    
__________________________________________________________________________________________________
activation_379 (Activation)     (None, 32, 32, 336)  0           adjust_bn_reduce_6[0][0]         
__________________________________________________________________________________________________
separable_conv_1_pad_reduction_ (None, 35, 35, 336)  0           activation_377[0][0]             
__________________________________________________________________________________________________
separable_conv_1_pad_reduction_ (None, 37, 37, 336)  0           activation_379[0][0]             
__________________________________________________________________________________________________
separable_conv_1_reduction_left (None, 16, 16, 336)  121296      separable_conv_1_pad_reduction_le
__________________________________________________________________________________________________
separable_conv_1_reduction_righ (None, 16, 16, 336)  129360      separable_conv_1_pad_reduction_ri
__________________________________________________________________________________________________
separable_conv_1_bn_reduction_l (None, 16, 16, 336)  1344        separable_conv_1_reduction_left1_
__________________________________________________________________________________________________
separable_conv_1_bn_reduction_r (None, 16, 16, 336)  1344        separable_conv_1_reduction_right1
__________________________________________________________________________________________________
activation_378 (Activation)     (None, 16, 16, 336)  0           separable_conv_1_bn_reduction_lef
__________________________________________________________________________________________________
activation_380 (Activation)     (None, 16, 16, 336)  0           separable_conv_1_bn_reduction_rig
__________________________________________________________________________________________________
separable_conv_2_reduction_left (None, 16, 16, 336)  121296      activation_378[0][0]             
__________________________________________________________________________________________________
separable_conv_2_reduction_righ (None, 16, 16, 336)  129360      activation_380[0][0]             
__________________________________________________________________________________________________
activation_381 (Activation)     (None, 32, 32, 336)  0           adjust_bn_reduce_6[0][0]         
__________________________________________________________________________________________________
separable_conv_2_bn_reduction_l (None, 16, 16, 336)  1344        separable_conv_2_reduction_left1_
__________________________________________________________________________________________________
separable_conv_2_bn_reduction_r (None, 16, 16, 336)  1344        separable_conv_2_reduction_right1
__________________________________________________________________________________________________
separable_conv_1_pad_reduction_ (None, 37, 37, 336)  0           activation_381[0][0]             
__________________________________________________________________________________________________
activation_383 (Activation)     (None, 32, 32, 336)  0           adjust_bn_reduce_6[0][0]         
__________________________________________________________________________________________________
reduction_add_1_reduce_6 (Add)  (None, 16, 16, 336)  0           separable_conv_2_bn_reduction_lef
                                                                 separable_conv_2_bn_reduction_rig
__________________________________________________________________________________________________
separable_conv_1_reduction_righ (None, 16, 16, 336)  129360      separable_conv_1_pad_reduction_ri
__________________________________________________________________________________________________
separable_conv_1_pad_reduction_ (None, 35, 35, 336)  0           activation_383[0][0]             
__________________________________________________________________________________________________
activation_385 (Activation)     (None, 16, 16, 336)  0           reduction_add_1_reduce_6[0][0]   
__________________________________________________________________________________________________
separable_conv_1_bn_reduction_r (None, 16, 16, 336)  1344        separable_conv_1_reduction_right2
__________________________________________________________________________________________________
separable_conv_1_reduction_righ (None, 16, 16, 336)  121296      separable_conv_1_pad_reduction_ri
__________________________________________________________________________________________________
separable_conv_1_reduction_left (None, 16, 16, 336)  115920      activation_385[0][0]             
__________________________________________________________________________________________________
activation_382 (Activation)     (None, 16, 16, 336)  0           separable_conv_1_bn_reduction_rig
__________________________________________________________________________________________________
separable_conv_1_bn_reduction_r (None, 16, 16, 336)  1344        separable_conv_1_reduction_right3
__________________________________________________________________________________________________
separable_conv_1_bn_reduction_l (None, 16, 16, 336)  1344        separable_conv_1_reduction_left4_
__________________________________________________________________________________________________
reduction_pad_1_reduce_6 (ZeroP (None, 33, 33, 336)  0           reduction_bn_1_reduce_6[0][0]    
__________________________________________________________________________________________________
separable_conv_2_reduction_righ (None, 16, 16, 336)  129360      activation_382[0][0]             
__________________________________________________________________________________________________
activation_384 (Activation)     (None, 16, 16, 336)  0           separable_conv_1_bn_reduction_rig
__________________________________________________________________________________________________
activation_386 (Activation)     (None, 16, 16, 336)  0           separable_conv_1_bn_reduction_lef
__________________________________________________________________________________________________
reduction_left2_reduce_6 (MaxPo (None, 16, 16, 336)  0           reduction_pad_1_reduce_6[0][0]   
__________________________________________________________________________________________________
separable_conv_2_bn_reduction_r (None, 16, 16, 336)  1344        separable_conv_2_reduction_right2
__________________________________________________________________________________________________
separable_conv_2_reduction_righ (None, 16, 16, 336)  121296      activation_384[0][0]             
__________________________________________________________________________________________________
separable_conv_2_reduction_left (None, 16, 16, 336)  115920      activation_386[0][0]             
__________________________________________________________________________________________________
adjust_relu_1_7 (Activation)    (None, 32, 32, 1008) 0           normal_concat_4[0][0]            
__________________________________________________________________________________________________
reduction_add_2_reduce_6 (Add)  (None, 16, 16, 336)  0           reduction_left2_reduce_6[0][0]   
                                                                 separable_conv_2_bn_reduction_rig
__________________________________________________________________________________________________
reduction_left3_reduce_6 (Avera (None, 16, 16, 336)  0           reduction_pad_1_reduce_6[0][0]   
__________________________________________________________________________________________________
separable_conv_2_bn_reduction_r (None, 16, 16, 336)  1344        separable_conv_2_reduction_right3
__________________________________________________________________________________________________
reduction_left4_reduce_6 (Avera (None, 16, 16, 336)  0           reduction_add_1_reduce_6[0][0]   
__________________________________________________________________________________________________
separable_conv_2_bn_reduction_l (None, 16, 16, 336)  1344        separable_conv_2_reduction_left4_
__________________________________________________________________________________________________
reduction_right5_reduce_6 (MaxP (None, 16, 16, 336)  0           reduction_pad_1_reduce_6[0][0]   
__________________________________________________________________________________________________
zero_padding2d_6 (ZeroPadding2D (None, 33, 33, 1008) 0           adjust_relu_1_7[0][0]            
__________________________________________________________________________________________________
reduction_add3_reduce_6 (Add)   (None, 16, 16, 336)  0           reduction_left3_reduce_6[0][0]   
                                                                 separable_conv_2_bn_reduction_rig
__________________________________________________________________________________________________
add_6 (Add)                     (None, 16, 16, 336)  0           reduction_add_2_reduce_6[0][0]   
                                                                 reduction_left4_reduce_6[0][0]   
__________________________________________________________________________________________________
reduction_add4_reduce_6 (Add)   (None, 16, 16, 336)  0           separable_conv_2_bn_reduction_lef
                                                                 reduction_right5_reduce_6[0][0]  
__________________________________________________________________________________________________
cropping2d_6 (Cropping2D)       (None, 32, 32, 1008) 0           zero_padding2d_6[0][0]           
__________________________________________________________________________________________________
reduction_concat_reduce_6 (Conc (None, 16, 16, 1344) 0           reduction_add_2_reduce_6[0][0]   
                                                                 reduction_add3_reduce_6[0][0]    
                                                                 add_6[0][0]                      
                                                                 reduction_add4_reduce_6[0][0]    
__________________________________________________________________________________________________
adjust_avg_pool_1_7 (AveragePoo (None, 16, 16, 1008) 0           adjust_relu_1_7[0][0]            
__________________________________________________________________________________________________
adjust_avg_pool_2_7 (AveragePoo (None, 16, 16, 1008) 0           cropping2d_6[0][0]               
__________________________________________________________________________________________________
adjust_conv_1_7 (Conv2D)        (None, 16, 16, 168)  169344      adjust_avg_pool_1_7[0][0]        
__________________________________________________________________________________________________
adjust_conv_2_7 (Conv2D)        (None, 16, 16, 168)  169344      adjust_avg_pool_2_7[0][0]        
__________________________________________________________________________________________________
activation_387 (Activation)     (None, 16, 16, 1344) 0           reduction_concat_reduce_6[0][0]  
__________________________________________________________________________________________________
concatenate_8 (Concatenate)     (None, 16, 16, 336)  0           adjust_conv_1_7[0][0]            
                                                                 adjust_conv_2_7[0][0]            
__________________________________________________________________________________________________
normal_conv_1_7 (Conv2D)        (None, 16, 16, 336)  451584      activation_387[0][0]             
__________________________________________________________________________________________________
adjust_bn_7 (BatchNormalization (None, 16, 16, 336)  1344        concatenate_8[0][0]              
__________________________________________________________________________________________________
normal_bn_1_7 (BatchNormalizati (None, 16, 16, 336)  1344        normal_conv_1_7[0][0]            
__________________________________________________________________________________________________
activation_388 (Activation)     (None, 16, 16, 336)  0           normal_bn_1_7[0][0]              
__________________________________________________________________________________________________
activation_390 (Activation)     (None, 16, 16, 336)  0           adjust_bn_7[0][0]                
__________________________________________________________________________________________________
activation_392 (Activation)     (None, 16, 16, 336)  0           adjust_bn_7[0][0]                
__________________________________________________________________________________________________
activation_394 (Activation)     (None, 16, 16, 336)  0           adjust_bn_7[0][0]                
__________________________________________________________________________________________________
activation_396 (Activation)     (None, 16, 16, 336)  0           normal_bn_1_7[0][0]              
__________________________________________________________________________________________________
separable_conv_1_normal_left1_7 (None, 16, 16, 336)  121296      activation_388[0][0]             
__________________________________________________________________________________________________
separable_conv_1_normal_right1_ (None, 16, 16, 336)  115920      activation_390[0][0]             
__________________________________________________________________________________________________
separable_conv_1_normal_left2_7 (None, 16, 16, 336)  121296      activation_392[0][0]             
__________________________________________________________________________________________________
separable_conv_1_normal_right2_ (None, 16, 16, 336)  115920      activation_394[0][0]             
__________________________________________________________________________________________________
separable_conv_1_normal_left5_7 (None, 16, 16, 336)  115920      activation_396[0][0]             
__________________________________________________________________________________________________
separable_conv_1_bn_normal_left (None, 16, 16, 336)  1344        separable_conv_1_normal_left1_7[0
__________________________________________________________________________________________________
separable_conv_1_bn_normal_righ (None, 16, 16, 336)  1344        separable_conv_1_normal_right1_7[
__________________________________________________________________________________________________
separable_conv_1_bn_normal_left (None, 16, 16, 336)  1344        separable_conv_1_normal_left2_7[0
__________________________________________________________________________________________________
separable_conv_1_bn_normal_righ (None, 16, 16, 336)  1344        separable_conv_1_normal_right2_7[
__________________________________________________________________________________________________
separable_conv_1_bn_normal_left (None, 16, 16, 336)  1344        separable_conv_1_normal_left5_7[0
__________________________________________________________________________________________________
activation_389 (Activation)     (None, 16, 16, 336)  0           separable_conv_1_bn_normal_left1_
__________________________________________________________________________________________________
activation_391 (Activation)     (None, 16, 16, 336)  0           separable_conv_1_bn_normal_right1
__________________________________________________________________________________________________
activation_393 (Activation)     (None, 16, 16, 336)  0           separable_conv_1_bn_normal_left2_
__________________________________________________________________________________________________
activation_395 (Activation)     (None, 16, 16, 336)  0           separable_conv_1_bn_normal_right2
__________________________________________________________________________________________________
activation_397 (Activation)     (None, 16, 16, 336)  0           separable_conv_1_bn_normal_left5_
__________________________________________________________________________________________________
separable_conv_2_normal_left1_7 (None, 16, 16, 336)  121296      activation_389[0][0]             
__________________________________________________________________________________________________
separable_conv_2_normal_right1_ (None, 16, 16, 336)  115920      activation_391[0][0]             
__________________________________________________________________________________________________
separable_conv_2_normal_left2_7 (None, 16, 16, 336)  121296      activation_393[0][0]             
__________________________________________________________________________________________________
separable_conv_2_normal_right2_ (None, 16, 16, 336)  115920      activation_395[0][0]             
__________________________________________________________________________________________________
separable_conv_2_normal_left5_7 (None, 16, 16, 336)  115920      activation_397[0][0]             
__________________________________________________________________________________________________
separable_conv_2_bn_normal_left (None, 16, 16, 336)  1344        separable_conv_2_normal_left1_7[0
__________________________________________________________________________________________________
separable_conv_2_bn_normal_righ (None, 16, 16, 336)  1344        separable_conv_2_normal_right1_7[
__________________________________________________________________________________________________
separable_conv_2_bn_normal_left (None, 16, 16, 336)  1344        separable_conv_2_normal_left2_7[0
__________________________________________________________________________________________________
separable_conv_2_bn_normal_righ (None, 16, 16, 336)  1344        separable_conv_2_normal_right2_7[
__________________________________________________________________________________________________
normal_left3_7 (AveragePooling2 (None, 16, 16, 336)  0           normal_bn_1_7[0][0]              
__________________________________________________________________________________________________
normal_left4_7 (AveragePooling2 (None, 16, 16, 336)  0           adjust_bn_7[0][0]                
__________________________________________________________________________________________________
normal_right4_7 (AveragePooling (None, 16, 16, 336)  0           adjust_bn_7[0][0]                
__________________________________________________________________________________________________
separable_conv_2_bn_normal_left (None, 16, 16, 336)  1344        separable_conv_2_normal_left5_7[0
__________________________________________________________________________________________________
normal_add_1_7 (Add)            (None, 16, 16, 336)  0           separable_conv_2_bn_normal_left1_
                                                                 separable_conv_2_bn_normal_right1
__________________________________________________________________________________________________
normal_add_2_7 (Add)            (None, 16, 16, 336)  0           separable_conv_2_bn_normal_left2_
                                                                 separable_conv_2_bn_normal_right2
__________________________________________________________________________________________________
normal_add_3_7 (Add)            (None, 16, 16, 336)  0           normal_left3_7[0][0]             
                                                                 adjust_bn_7[0][0]                
__________________________________________________________________________________________________
normal_add_4_7 (Add)            (None, 16, 16, 336)  0           normal_left4_7[0][0]             
                                                                 normal_right4_7[0][0]            
__________________________________________________________________________________________________
normal_add_5_7 (Add)            (None, 16, 16, 336)  0           separable_conv_2_bn_normal_left5_
                                                                 normal_bn_1_7[0][0]              
__________________________________________________________________________________________________
normal_concat_7 (Concatenate)   (None, 16, 16, 2016) 0           adjust_bn_7[0][0]                
                                                                 normal_add_1_7[0][0]             
                                                                 normal_add_2_7[0][0]             
                                                                 normal_add_3_7[0][0]             
                                                                 normal_add_4_7[0][0]             
                                                                 normal_add_5_7[0][0]             
__________________________________________________________________________________________________
activation_398 (Activation)     (None, 16, 16, 1344) 0           reduction_concat_reduce_6[0][0]  
__________________________________________________________________________________________________
activation_399 (Activation)     (None, 16, 16, 2016) 0           normal_concat_7[0][0]            
__________________________________________________________________________________________________
adjust_conv_projection_8 (Conv2 (None, 16, 16, 336)  451584      activation_398[0][0]             
__________________________________________________________________________________________________
normal_conv_1_8 (Conv2D)        (None, 16, 16, 336)  677376      activation_399[0][0]             
__________________________________________________________________________________________________
adjust_bn_8 (BatchNormalization (None, 16, 16, 336)  1344        adjust_conv_projection_8[0][0]   
__________________________________________________________________________________________________
normal_bn_1_8 (BatchNormalizati (None, 16, 16, 336)  1344        normal_conv_1_8[0][0]            
__________________________________________________________________________________________________
activation_400 (Activation)     (None, 16, 16, 336)  0           normal_bn_1_8[0][0]              
__________________________________________________________________________________________________
activation_402 (Activation)     (None, 16, 16, 336)  0           adjust_bn_8[0][0]                
__________________________________________________________________________________________________
activation_404 (Activation)     (None, 16, 16, 336)  0           adjust_bn_8[0][0]                
__________________________________________________________________________________________________
activation_406 (Activation)     (None, 16, 16, 336)  0           adjust_bn_8[0][0]                
__________________________________________________________________________________________________
activation_408 (Activation)     (None, 16, 16, 336)  0           normal_bn_1_8[0][0]              
__________________________________________________________________________________________________
separable_conv_1_normal_left1_8 (None, 16, 16, 336)  121296      activation_400[0][0]             
__________________________________________________________________________________________________
separable_conv_1_normal_right1_ (None, 16, 16, 336)  115920      activation_402[0][0]             
__________________________________________________________________________________________________
separable_conv_1_normal_left2_8 (None, 16, 16, 336)  121296      activation_404[0][0]             
__________________________________________________________________________________________________
separable_conv_1_normal_right2_ (None, 16, 16, 336)  115920      activation_406[0][0]             
__________________________________________________________________________________________________
separable_conv_1_normal_left5_8 (None, 16, 16, 336)  115920      activation_408[0][0]             
__________________________________________________________________________________________________
separable_conv_1_bn_normal_left (None, 16, 16, 336)  1344        separable_conv_1_normal_left1_8[0
__________________________________________________________________________________________________
separable_conv_1_bn_normal_righ (None, 16, 16, 336)  1344        separable_conv_1_normal_right1_8[
__________________________________________________________________________________________________
separable_conv_1_bn_normal_left (None, 16, 16, 336)  1344        separable_conv_1_normal_left2_8[0
__________________________________________________________________________________________________
separable_conv_1_bn_normal_righ (None, 16, 16, 336)  1344        separable_conv_1_normal_right2_8[
__________________________________________________________________________________________________
separable_conv_1_bn_normal_left (None, 16, 16, 336)  1344        separable_conv_1_normal_left5_8[0
__________________________________________________________________________________________________
activation_401 (Activation)     (None, 16, 16, 336)  0           separable_conv_1_bn_normal_left1_
__________________________________________________________________________________________________
activation_403 (Activation)     (None, 16, 16, 336)  0           separable_conv_1_bn_normal_right1
__________________________________________________________________________________________________
activation_405 (Activation)     (None, 16, 16, 336)  0           separable_conv_1_bn_normal_left2_
__________________________________________________________________________________________________
activation_407 (Activation)     (None, 16, 16, 336)  0           separable_conv_1_bn_normal_right2
__________________________________________________________________________________________________
activation_409 (Activation)     (None, 16, 16, 336)  0           separable_conv_1_bn_normal_left5_
__________________________________________________________________________________________________
separable_conv_2_normal_left1_8 (None, 16, 16, 336)  121296      activation_401[0][0]             
__________________________________________________________________________________________________
separable_conv_2_normal_right1_ (None, 16, 16, 336)  115920      activation_403[0][0]             
__________________________________________________________________________________________________
separable_conv_2_normal_left2_8 (None, 16, 16, 336)  121296      activation_405[0][0]             
__________________________________________________________________________________________________
separable_conv_2_normal_right2_ (None, 16, 16, 336)  115920      activation_407[0][0]             
__________________________________________________________________________________________________
separable_conv_2_normal_left5_8 (None, 16, 16, 336)  115920      activation_409[0][0]             
__________________________________________________________________________________________________
separable_conv_2_bn_normal_left (None, 16, 16, 336)  1344        separable_conv_2_normal_left1_8[0
__________________________________________________________________________________________________
separable_conv_2_bn_normal_righ (None, 16, 16, 336)  1344        separable_conv_2_normal_right1_8[
__________________________________________________________________________________________________
separable_conv_2_bn_normal_left (None, 16, 16, 336)  1344        separable_conv_2_normal_left2_8[0
__________________________________________________________________________________________________
separable_conv_2_bn_normal_righ (None, 16, 16, 336)  1344        separable_conv_2_normal_right2_8[
__________________________________________________________________________________________________
normal_left3_8 (AveragePooling2 (None, 16, 16, 336)  0           normal_bn_1_8[0][0]              
__________________________________________________________________________________________________
normal_left4_8 (AveragePooling2 (None, 16, 16, 336)  0           adjust_bn_8[0][0]                
__________________________________________________________________________________________________
normal_right4_8 (AveragePooling (None, 16, 16, 336)  0           adjust_bn_8[0][0]                
__________________________________________________________________________________________________
separable_conv_2_bn_normal_left (None, 16, 16, 336)  1344        separable_conv_2_normal_left5_8[0
__________________________________________________________________________________________________
normal_add_1_8 (Add)            (None, 16, 16, 336)  0           separable_conv_2_bn_normal_left1_
                                                                 separable_conv_2_bn_normal_right1
__________________________________________________________________________________________________
normal_add_2_8 (Add)            (None, 16, 16, 336)  0           separable_conv_2_bn_normal_left2_
                                                                 separable_conv_2_bn_normal_right2
__________________________________________________________________________________________________
normal_add_3_8 (Add)            (None, 16, 16, 336)  0           normal_left3_8[0][0]             
                                                                 adjust_bn_8[0][0]                
__________________________________________________________________________________________________
normal_add_4_8 (Add)            (None, 16, 16, 336)  0           normal_left4_8[0][0]             
                                                                 normal_right4_8[0][0]            
__________________________________________________________________________________________________
normal_add_5_8 (Add)            (None, 16, 16, 336)  0           separable_conv_2_bn_normal_left5_
                                                                 normal_bn_1_8[0][0]              
__________________________________________________________________________________________________
normal_concat_8 (Concatenate)   (None, 16, 16, 2016) 0           adjust_bn_8[0][0]                
                                                                 normal_add_1_8[0][0]             
                                                                 normal_add_2_8[0][0]             
                                                                 normal_add_3_8[0][0]             
                                                                 normal_add_4_8[0][0]             
                                                                 normal_add_5_8[0][0]             
__________________________________________________________________________________________________
activation_410 (Activation)     (None, 16, 16, 2016) 0           normal_concat_7[0][0]            
__________________________________________________________________________________________________
activation_411 (Activation)     (None, 16, 16, 2016) 0           normal_concat_8[0][0]            
__________________________________________________________________________________________________
adjust_conv_projection_9 (Conv2 (None, 16, 16, 336)  677376      activation_410[0][0]             
__________________________________________________________________________________________________
normal_conv_1_9 (Conv2D)        (None, 16, 16, 336)  677376      activation_411[0][0]             
__________________________________________________________________________________________________
adjust_bn_9 (BatchNormalization (None, 16, 16, 336)  1344        adjust_conv_projection_9[0][0]   
__________________________________________________________________________________________________
normal_bn_1_9 (BatchNormalizati (None, 16, 16, 336)  1344        normal_conv_1_9[0][0]            
__________________________________________________________________________________________________
activation_412 (Activation)     (None, 16, 16, 336)  0           normal_bn_1_9[0][0]              
__________________________________________________________________________________________________
activation_414 (Activation)     (None, 16, 16, 336)  0           adjust_bn_9[0][0]                
__________________________________________________________________________________________________
activation_416 (Activation)     (None, 16, 16, 336)  0           adjust_bn_9[0][0]                
__________________________________________________________________________________________________
activation_418 (Activation)     (None, 16, 16, 336)  0           adjust_bn_9[0][0]                
__________________________________________________________________________________________________
activation_420 (Activation)     (None, 16, 16, 336)  0           normal_bn_1_9[0][0]              
__________________________________________________________________________________________________
separable_conv_1_normal_left1_9 (None, 16, 16, 336)  121296      activation_412[0][0]             
__________________________________________________________________________________________________
separable_conv_1_normal_right1_ (None, 16, 16, 336)  115920      activation_414[0][0]             
__________________________________________________________________________________________________
separable_conv_1_normal_left2_9 (None, 16, 16, 336)  121296      activation_416[0][0]             
__________________________________________________________________________________________________
separable_conv_1_normal_right2_ (None, 16, 16, 336)  115920      activation_418[0][0]             
__________________________________________________________________________________________________
separable_conv_1_normal_left5_9 (None, 16, 16, 336)  115920      activation_420[0][0]             
__________________________________________________________________________________________________
separable_conv_1_bn_normal_left (None, 16, 16, 336)  1344        separable_conv_1_normal_left1_9[0
__________________________________________________________________________________________________
separable_conv_1_bn_normal_righ (None, 16, 16, 336)  1344        separable_conv_1_normal_right1_9[
__________________________________________________________________________________________________
separable_conv_1_bn_normal_left (None, 16, 16, 336)  1344        separable_conv_1_normal_left2_9[0
__________________________________________________________________________________________________
separable_conv_1_bn_normal_righ (None, 16, 16, 336)  1344        separable_conv_1_normal_right2_9[
__________________________________________________________________________________________________
separable_conv_1_bn_normal_left (None, 16, 16, 336)  1344        separable_conv_1_normal_left5_9[0
__________________________________________________________________________________________________
activation_413 (Activation)     (None, 16, 16, 336)  0           separable_conv_1_bn_normal_left1_
__________________________________________________________________________________________________
activation_415 (Activation)     (None, 16, 16, 336)  0           separable_conv_1_bn_normal_right1
__________________________________________________________________________________________________
activation_417 (Activation)     (None, 16, 16, 336)  0           separable_conv_1_bn_normal_left2_
__________________________________________________________________________________________________
activation_419 (Activation)     (None, 16, 16, 336)  0           separable_conv_1_bn_normal_right2
__________________________________________________________________________________________________
activation_421 (Activation)     (None, 16, 16, 336)  0           separable_conv_1_bn_normal_left5_
__________________________________________________________________________________________________
separable_conv_2_normal_left1_9 (None, 16, 16, 336)  121296      activation_413[0][0]             
__________________________________________________________________________________________________
separable_conv_2_normal_right1_ (None, 16, 16, 336)  115920      activation_415[0][0]             
__________________________________________________________________________________________________
separable_conv_2_normal_left2_9 (None, 16, 16, 336)  121296      activation_417[0][0]             
__________________________________________________________________________________________________
separable_conv_2_normal_right2_ (None, 16, 16, 336)  115920      activation_419[0][0]             
__________________________________________________________________________________________________
separable_conv_2_normal_left5_9 (None, 16, 16, 336)  115920      activation_421[0][0]             
__________________________________________________________________________________________________
separable_conv_2_bn_normal_left (None, 16, 16, 336)  1344        separable_conv_2_normal_left1_9[0
__________________________________________________________________________________________________
separable_conv_2_bn_normal_righ (None, 16, 16, 336)  1344        separable_conv_2_normal_right1_9[
__________________________________________________________________________________________________
separable_conv_2_bn_normal_left (None, 16, 16, 336)  1344        separable_conv_2_normal_left2_9[0
__________________________________________________________________________________________________
separable_conv_2_bn_normal_righ (None, 16, 16, 336)  1344        separable_conv_2_normal_right2_9[
__________________________________________________________________________________________________
normal_left3_9 (AveragePooling2 (None, 16, 16, 336)  0           normal_bn_1_9[0][0]              
__________________________________________________________________________________________________
normal_left4_9 (AveragePooling2 (None, 16, 16, 336)  0           adjust_bn_9[0][0]                
__________________________________________________________________________________________________
normal_right4_9 (AveragePooling (None, 16, 16, 336)  0           adjust_bn_9[0][0]                
__________________________________________________________________________________________________
separable_conv_2_bn_normal_left (None, 16, 16, 336)  1344        separable_conv_2_normal_left5_9[0
__________________________________________________________________________________________________
normal_add_1_9 (Add)            (None, 16, 16, 336)  0           separable_conv_2_bn_normal_left1_
                                                                 separable_conv_2_bn_normal_right1
__________________________________________________________________________________________________
normal_add_2_9 (Add)            (None, 16, 16, 336)  0           separable_conv_2_bn_normal_left2_
                                                                 separable_conv_2_bn_normal_right2
__________________________________________________________________________________________________
normal_add_3_9 (Add)            (None, 16, 16, 336)  0           normal_left3_9[0][0]             
                                                                 adjust_bn_9[0][0]                
__________________________________________________________________________________________________
normal_add_4_9 (Add)            (None, 16, 16, 336)  0           normal_left4_9[0][0]             
                                                                 normal_right4_9[0][0]            
__________________________________________________________________________________________________
normal_add_5_9 (Add)            (None, 16, 16, 336)  0           separable_conv_2_bn_normal_left5_
                                                                 normal_bn_1_9[0][0]              
__________________________________________________________________________________________________
normal_concat_9 (Concatenate)   (None, 16, 16, 2016) 0           adjust_bn_9[0][0]                
                                                                 normal_add_1_9[0][0]             
                                                                 normal_add_2_9[0][0]             
                                                                 normal_add_3_9[0][0]             
                                                                 normal_add_4_9[0][0]             
                                                                 normal_add_5_9[0][0]             
__________________________________________________________________________________________________
activation_422 (Activation)     (None, 16, 16, 2016) 0           normal_concat_8[0][0]            
__________________________________________________________________________________________________
activation_423 (Activation)     (None, 16, 16, 2016) 0           normal_concat_9[0][0]            
__________________________________________________________________________________________________
adjust_conv_projection_10 (Conv (None, 16, 16, 336)  677376      activation_422[0][0]             
__________________________________________________________________________________________________
normal_conv_1_10 (Conv2D)       (None, 16, 16, 336)  677376      activation_423[0][0]             
__________________________________________________________________________________________________
adjust_bn_10 (BatchNormalizatio (None, 16, 16, 336)  1344        adjust_conv_projection_10[0][0]  
__________________________________________________________________________________________________
normal_bn_1_10 (BatchNormalizat (None, 16, 16, 336)  1344        normal_conv_1_10[0][0]           
__________________________________________________________________________________________________
activation_424 (Activation)     (None, 16, 16, 336)  0           normal_bn_1_10[0][0]             
__________________________________________________________________________________________________
activation_426 (Activation)     (None, 16, 16, 336)  0           adjust_bn_10[0][0]               
__________________________________________________________________________________________________
activation_428 (Activation)     (None, 16, 16, 336)  0           adjust_bn_10[0][0]               
__________________________________________________________________________________________________
activation_430 (Activation)     (None, 16, 16, 336)  0           adjust_bn_10[0][0]               
__________________________________________________________________________________________________
activation_432 (Activation)     (None, 16, 16, 336)  0           normal_bn_1_10[0][0]             
__________________________________________________________________________________________________
separable_conv_1_normal_left1_1 (None, 16, 16, 336)  121296      activation_424[0][0]             
__________________________________________________________________________________________________
separable_conv_1_normal_right1_ (None, 16, 16, 336)  115920      activation_426[0][0]             
__________________________________________________________________________________________________
separable_conv_1_normal_left2_1 (None, 16, 16, 336)  121296      activation_428[0][0]             
__________________________________________________________________________________________________
separable_conv_1_normal_right2_ (None, 16, 16, 336)  115920      activation_430[0][0]             
__________________________________________________________________________________________________
separable_conv_1_normal_left5_1 (None, 16, 16, 336)  115920      activation_432[0][0]             
__________________________________________________________________________________________________
separable_conv_1_bn_normal_left (None, 16, 16, 336)  1344        separable_conv_1_normal_left1_10[
__________________________________________________________________________________________________
separable_conv_1_bn_normal_righ (None, 16, 16, 336)  1344        separable_conv_1_normal_right1_10
__________________________________________________________________________________________________
separable_conv_1_bn_normal_left (None, 16, 16, 336)  1344        separable_conv_1_normal_left2_10[
__________________________________________________________________________________________________
separable_conv_1_bn_normal_righ (None, 16, 16, 336)  1344        separable_conv_1_normal_right2_10
__________________________________________________________________________________________________
separable_conv_1_bn_normal_left (None, 16, 16, 336)  1344        separable_conv_1_normal_left5_10[
__________________________________________________________________________________________________
activation_425 (Activation)     (None, 16, 16, 336)  0           separable_conv_1_bn_normal_left1_
__________________________________________________________________________________________________
activation_427 (Activation)     (None, 16, 16, 336)  0           separable_conv_1_bn_normal_right1
__________________________________________________________________________________________________
activation_429 (Activation)     (None, 16, 16, 336)  0           separable_conv_1_bn_normal_left2_
__________________________________________________________________________________________________
activation_431 (Activation)     (None, 16, 16, 336)  0           separable_conv_1_bn_normal_right2
__________________________________________________________________________________________________
activation_433 (Activation)     (None, 16, 16, 336)  0           separable_conv_1_bn_normal_left5_
__________________________________________________________________________________________________
separable_conv_2_normal_left1_1 (None, 16, 16, 336)  121296      activation_425[0][0]             
__________________________________________________________________________________________________
separable_conv_2_normal_right1_ (None, 16, 16, 336)  115920      activation_427[0][0]             
__________________________________________________________________________________________________
separable_conv_2_normal_left2_1 (None, 16, 16, 336)  121296      activation_429[0][0]             
__________________________________________________________________________________________________
separable_conv_2_normal_right2_ (None, 16, 16, 336)  115920      activation_431[0][0]             
__________________________________________________________________________________________________
separable_conv_2_normal_left5_1 (None, 16, 16, 336)  115920      activation_433[0][0]             
__________________________________________________________________________________________________
separable_conv_2_bn_normal_left (None, 16, 16, 336)  1344        separable_conv_2_normal_left1_10[
__________________________________________________________________________________________________
separable_conv_2_bn_normal_righ (None, 16, 16, 336)  1344        separable_conv_2_normal_right1_10
__________________________________________________________________________________________________
separable_conv_2_bn_normal_left (None, 16, 16, 336)  1344        separable_conv_2_normal_left2_10[
__________________________________________________________________________________________________
separable_conv_2_bn_normal_righ (None, 16, 16, 336)  1344        separable_conv_2_normal_right2_10
__________________________________________________________________________________________________
normal_left3_10 (AveragePooling (None, 16, 16, 336)  0           normal_bn_1_10[0][0]             
__________________________________________________________________________________________________
normal_left4_10 (AveragePooling (None, 16, 16, 336)  0           adjust_bn_10[0][0]               
__________________________________________________________________________________________________
normal_right4_10 (AveragePoolin (None, 16, 16, 336)  0           adjust_bn_10[0][0]               
__________________________________________________________________________________________________
separable_conv_2_bn_normal_left (None, 16, 16, 336)  1344        separable_conv_2_normal_left5_10[
__________________________________________________________________________________________________
normal_add_1_10 (Add)           (None, 16, 16, 336)  0           separable_conv_2_bn_normal_left1_
                                                                 separable_conv_2_bn_normal_right1
__________________________________________________________________________________________________
normal_add_2_10 (Add)           (None, 16, 16, 336)  0           separable_conv_2_bn_normal_left2_
                                                                 separable_conv_2_bn_normal_right2
__________________________________________________________________________________________________
normal_add_3_10 (Add)           (None, 16, 16, 336)  0           normal_left3_10[0][0]            
                                                                 adjust_bn_10[0][0]               
__________________________________________________________________________________________________
normal_add_4_10 (Add)           (None, 16, 16, 336)  0           normal_left4_10[0][0]            
                                                                 normal_right4_10[0][0]           
__________________________________________________________________________________________________
normal_add_5_10 (Add)           (None, 16, 16, 336)  0           separable_conv_2_bn_normal_left5_
                                                                 normal_bn_1_10[0][0]             
__________________________________________________________________________________________________
normal_concat_10 (Concatenate)  (None, 16, 16, 2016) 0           adjust_bn_10[0][0]               
                                                                 normal_add_1_10[0][0]            
                                                                 normal_add_2_10[0][0]            
                                                                 normal_add_3_10[0][0]            
                                                                 normal_add_4_10[0][0]            
                                                                 normal_add_5_10[0][0]            
__________________________________________________________________________________________________
activation_434 (Activation)     (None, 16, 16, 2016) 0           normal_concat_9[0][0]            
__________________________________________________________________________________________________
activation_435 (Activation)     (None, 16, 16, 2016) 0           normal_concat_10[0][0]           
__________________________________________________________________________________________________
adjust_conv_projection_11 (Conv (None, 16, 16, 336)  677376      activation_434[0][0]             
__________________________________________________________________________________________________
normal_conv_1_11 (Conv2D)       (None, 16, 16, 336)  677376      activation_435[0][0]             
__________________________________________________________________________________________________
adjust_bn_11 (BatchNormalizatio (None, 16, 16, 336)  1344        adjust_conv_projection_11[0][0]  
__________________________________________________________________________________________________
normal_bn_1_11 (BatchNormalizat (None, 16, 16, 336)  1344        normal_conv_1_11[0][0]           
__________________________________________________________________________________________________
activation_436 (Activation)     (None, 16, 16, 336)  0           normal_bn_1_11[0][0]             
__________________________________________________________________________________________________
activation_438 (Activation)     (None, 16, 16, 336)  0           adjust_bn_11[0][0]               
__________________________________________________________________________________________________
activation_440 (Activation)     (None, 16, 16, 336)  0           adjust_bn_11[0][0]               
__________________________________________________________________________________________________
activation_442 (Activation)     (None, 16, 16, 336)  0           adjust_bn_11[0][0]               
__________________________________________________________________________________________________
activation_444 (Activation)     (None, 16, 16, 336)  0           normal_bn_1_11[0][0]             
__________________________________________________________________________________________________
separable_conv_1_normal_left1_1 (None, 16, 16, 336)  121296      activation_436[0][0]             
__________________________________________________________________________________________________
separable_conv_1_normal_right1_ (None, 16, 16, 336)  115920      activation_438[0][0]             
__________________________________________________________________________________________________
separable_conv_1_normal_left2_1 (None, 16, 16, 336)  121296      activation_440[0][0]             
__________________________________________________________________________________________________
separable_conv_1_normal_right2_ (None, 16, 16, 336)  115920      activation_442[0][0]             
__________________________________________________________________________________________________
separable_conv_1_normal_left5_1 (None, 16, 16, 336)  115920      activation_444[0][0]             
__________________________________________________________________________________________________
separable_conv_1_bn_normal_left (None, 16, 16, 336)  1344        separable_conv_1_normal_left1_11[
__________________________________________________________________________________________________
separable_conv_1_bn_normal_righ (None, 16, 16, 336)  1344        separable_conv_1_normal_right1_11
__________________________________________________________________________________________________
separable_conv_1_bn_normal_left (None, 16, 16, 336)  1344        separable_conv_1_normal_left2_11[
__________________________________________________________________________________________________
separable_conv_1_bn_normal_righ (None, 16, 16, 336)  1344        separable_conv_1_normal_right2_11
__________________________________________________________________________________________________
separable_conv_1_bn_normal_left (None, 16, 16, 336)  1344        separable_conv_1_normal_left5_11[
__________________________________________________________________________________________________
activation_437 (Activation)     (None, 16, 16, 336)  0           separable_conv_1_bn_normal_left1_
__________________________________________________________________________________________________
activation_439 (Activation)     (None, 16, 16, 336)  0           separable_conv_1_bn_normal_right1
__________________________________________________________________________________________________
activation_441 (Activation)     (None, 16, 16, 336)  0           separable_conv_1_bn_normal_left2_
__________________________________________________________________________________________________
activation_443 (Activation)     (None, 16, 16, 336)  0           separable_conv_1_bn_normal_right2
__________________________________________________________________________________________________
activation_445 (Activation)     (None, 16, 16, 336)  0           separable_conv_1_bn_normal_left5_
__________________________________________________________________________________________________
separable_conv_2_normal_left1_1 (None, 16, 16, 336)  121296      activation_437[0][0]             
__________________________________________________________________________________________________
separable_conv_2_normal_right1_ (None, 16, 16, 336)  115920      activation_439[0][0]             
__________________________________________________________________________________________________
separable_conv_2_normal_left2_1 (None, 16, 16, 336)  121296      activation_441[0][0]             
__________________________________________________________________________________________________
separable_conv_2_normal_right2_ (None, 16, 16, 336)  115920      activation_443[0][0]             
__________________________________________________________________________________________________
separable_conv_2_normal_left5_1 (None, 16, 16, 336)  115920      activation_445[0][0]             
__________________________________________________________________________________________________
separable_conv_2_bn_normal_left (None, 16, 16, 336)  1344        separable_conv_2_normal_left1_11[
__________________________________________________________________________________________________
separable_conv_2_bn_normal_righ (None, 16, 16, 336)  1344        separable_conv_2_normal_right1_11
__________________________________________________________________________________________________
separable_conv_2_bn_normal_left (None, 16, 16, 336)  1344        separable_conv_2_normal_left2_11[
__________________________________________________________________________________________________
separable_conv_2_bn_normal_righ (None, 16, 16, 336)  1344        separable_conv_2_normal_right2_11
__________________________________________________________________________________________________
normal_left3_11 (AveragePooling (None, 16, 16, 336)  0           normal_bn_1_11[0][0]             
__________________________________________________________________________________________________
normal_left4_11 (AveragePooling (None, 16, 16, 336)  0           adjust_bn_11[0][0]               
__________________________________________________________________________________________________
normal_right4_11 (AveragePoolin (None, 16, 16, 336)  0           adjust_bn_11[0][0]               
__________________________________________________________________________________________________
separable_conv_2_bn_normal_left (None, 16, 16, 336)  1344        separable_conv_2_normal_left5_11[
__________________________________________________________________________________________________
normal_add_1_11 (Add)           (None, 16, 16, 336)  0           separable_conv_2_bn_normal_left1_
                                                                 separable_conv_2_bn_normal_right1
__________________________________________________________________________________________________
normal_add_2_11 (Add)           (None, 16, 16, 336)  0           separable_conv_2_bn_normal_left2_
                                                                 separable_conv_2_bn_normal_right2
__________________________________________________________________________________________________
normal_add_3_11 (Add)           (None, 16, 16, 336)  0           normal_left3_11[0][0]            
                                                                 adjust_bn_11[0][0]               
__________________________________________________________________________________________________
normal_add_4_11 (Add)           (None, 16, 16, 336)  0           normal_left4_11[0][0]            
                                                                 normal_right4_11[0][0]           
__________________________________________________________________________________________________
normal_add_5_11 (Add)           (None, 16, 16, 336)  0           separable_conv_2_bn_normal_left5_
                                                                 normal_bn_1_11[0][0]             
__________________________________________________________________________________________________
normal_concat_11 (Concatenate)  (None, 16, 16, 2016) 0           adjust_bn_11[0][0]               
                                                                 normal_add_1_11[0][0]            
                                                                 normal_add_2_11[0][0]            
                                                                 normal_add_3_11[0][0]            
                                                                 normal_add_4_11[0][0]            
                                                                 normal_add_5_11[0][0]            
__________________________________________________________________________________________________
activation_446 (Activation)     (None, 16, 16, 2016) 0           normal_concat_10[0][0]           
__________________________________________________________________________________________________
activation_447 (Activation)     (None, 16, 16, 2016) 0           normal_concat_11[0][0]           
__________________________________________________________________________________________________
adjust_conv_projection_12 (Conv (None, 16, 16, 336)  677376      activation_446[0][0]             
__________________________________________________________________________________________________
normal_conv_1_12 (Conv2D)       (None, 16, 16, 336)  677376      activation_447[0][0]             
__________________________________________________________________________________________________
adjust_bn_12 (BatchNormalizatio (None, 16, 16, 336)  1344        adjust_conv_projection_12[0][0]  
__________________________________________________________________________________________________
normal_bn_1_12 (BatchNormalizat (None, 16, 16, 336)  1344        normal_conv_1_12[0][0]           
__________________________________________________________________________________________________
activation_448 (Activation)     (None, 16, 16, 336)  0           normal_bn_1_12[0][0]             
__________________________________________________________________________________________________
activation_450 (Activation)     (None, 16, 16, 336)  0           adjust_bn_12[0][0]               
__________________________________________________________________________________________________
activation_452 (Activation)     (None, 16, 16, 336)  0           adjust_bn_12[0][0]               
__________________________________________________________________________________________________
activation_454 (Activation)     (None, 16, 16, 336)  0           adjust_bn_12[0][0]               
__________________________________________________________________________________________________
activation_456 (Activation)     (None, 16, 16, 336)  0           normal_bn_1_12[0][0]             
__________________________________________________________________________________________________
separable_conv_1_normal_left1_1 (None, 16, 16, 336)  121296      activation_448[0][0]             
__________________________________________________________________________________________________
separable_conv_1_normal_right1_ (None, 16, 16, 336)  115920      activation_450[0][0]             
__________________________________________________________________________________________________
separable_conv_1_normal_left2_1 (None, 16, 16, 336)  121296      activation_452[0][0]             
__________________________________________________________________________________________________
separable_conv_1_normal_right2_ (None, 16, 16, 336)  115920      activation_454[0][0]             
__________________________________________________________________________________________________
separable_conv_1_normal_left5_1 (None, 16, 16, 336)  115920      activation_456[0][0]             
__________________________________________________________________________________________________
separable_conv_1_bn_normal_left (None, 16, 16, 336)  1344        separable_conv_1_normal_left1_12[
__________________________________________________________________________________________________
separable_conv_1_bn_normal_righ (None, 16, 16, 336)  1344        separable_conv_1_normal_right1_12
__________________________________________________________________________________________________
separable_conv_1_bn_normal_left (None, 16, 16, 336)  1344        separable_conv_1_normal_left2_12[
__________________________________________________________________________________________________
separable_conv_1_bn_normal_righ (None, 16, 16, 336)  1344        separable_conv_1_normal_right2_12
__________________________________________________________________________________________________
…
normal_conv_1_14 (Conv2D)       (None, 8, 8, 672)    2709504     activation_482[0][0]             
__________________________________________________________________________________________________
adjust_bn_14 (BatchNormalizatio (None, 8, 8, 672)    2688        adjust_conv_projection_14[0][0]  
__________________________________________________________________________________________________
normal_bn_1_14 (BatchNormalizat (None, 8, 8, 672)    2688        normal_conv_1_14[0][0]           
__________________________________________________________________________________________________
activation_483 (Activation)     (None, 8, 8, 672)    0           normal_bn_1_14[0][0]             
__________________________________________________________________________________________________
activation_485 (Activation)     (None, 8, 8, 672)    0           adjust_bn_14[0][0]               
__________________________________________________________________________________________________
activation_487 (Activation)     (None, 8, 8, 672)    0           adjust_bn_14[0][0]               
__________________________________________________________________________________________________
activation_489 (Activation)     (None, 8, 8, 672)    0           adjust_bn_14[0][0]               
__________________________________________________________________________________________________
activation_491 (Activation)     (None, 8, 8, 672)    0           normal_bn_1_14[0][0]             
__________________________________________________________________________________________________
separable_conv_1_normal_left1_1 (None, 8, 8, 672)    468384      activation_483[0][0]             
__________________________________________________________________________________________________
separable_conv_1_normal_right1_ (None, 8, 8, 672)    457632      activation_485[0][0]             
__________________________________________________________________________________________________
separable_conv_1_normal_left2_1 (None, 8, 8, 672)    468384      activation_487[0][0]             
__________________________________________________________________________________________________
separable_conv_1_normal_right2_ (None, 8, 8, 672)    457632      activation_489[0][0]             
__________________________________________________________________________________________________
separable_conv_1_normal_left5_1 (None, 8, 8, 672)    457632      activation_491[0][0]             
__________________________________________________________________________________________________
separable_conv_1_bn_normal_left (None, 8, 8, 672)    2688        separable_conv_1_normal_left1_14[
__________________________________________________________________________________________________
separable_conv_1_bn_normal_righ (None, 8, 8, 672)    2688        separable_conv_1_normal_right1_14
__________________________________________________________________________________________________
separable_conv_1_bn_normal_left (None, 8, 8, 672)    2688        separable_conv_1_normal_left2_14[
__________________________________________________________________________________________________
separable_conv_1_bn_normal_righ (None, 8, 8, 672)    2688        separable_conv_1_normal_right2_14
__________________________________________________________________________________________________
separable_conv_1_bn_normal_left (None, 8, 8, 672)    2688        separable_conv_1_normal_left5_14[
__________________________________________________________________________________________________
activation_484 (Activation)     (None, 8, 8, 672)    0           separable_conv_1_bn_normal_left1_
__________________________________________________________________________________________________
activation_486 (Activation)     (None, 8, 8, 672)    0           separable_conv_1_bn_normal_right1
__________________________________________________________________________________________________
activation_488 (Activation)     (None, 8, 8, 672)    0           separable_conv_1_bn_normal_left2_
__________________________________________________________________________________________________
activation_490 (Activation)     (None, 8, 8, 672)    0           separable_conv_1_bn_normal_right2
__________________________________________________________________________________________________
activation_492 (Activation)     (None, 8, 8, 672)    0           separable_conv_1_bn_normal_left5_
__________________________________________________________________________________________________
separable_conv_2_normal_left1_1 (None, 8, 8, 672)    468384      activation_484[0][0]             
__________________________________________________________________________________________________
separable_conv_2_normal_right1_ (None, 8, 8, 672)    457632      activation_486[0][0]             
__________________________________________________________________________________________________
separable_conv_2_normal_left2_1 (None, 8, 8, 672)    468384      activation_488[0][0]             
__________________________________________________________________________________________________
separable_conv_2_normal_right2_ (None, 8, 8, 672)    457632      activation_490[0][0]             
__________________________________________________________________________________________________
separable_conv_2_normal_left5_1 (None, 8, 8, 672)    457632      activation_492[0][0]             
__________________________________________________________________________________________________
separable_conv_2_bn_normal_left (None, 8, 8, 672)    2688        separable_conv_2_normal_left1_14[
__________________________________________________________________________________________________
separable_conv_2_bn_normal_righ (None, 8, 8, 672)    2688        separable_conv_2_normal_right1_14
__________________________________________________________________________________________________
separable_conv_2_bn_normal_left (None, 8, 8, 672)    2688        separable_conv_2_normal_left2_14[
__________________________________________________________________________________________________
separable_conv_2_bn_normal_righ (None, 8, 8, 672)    2688        separable_conv_2_normal_right2_14
__________________________________________________________________________________________________
normal_left3_14 (AveragePooling (None, 8, 8, 672)    0           normal_bn_1_14[0][0]             
__________________________________________________________________________________________________
normal_left4_14 (AveragePooling (None, 8, 8, 672)    0           adjust_bn_14[0][0]               
__________________________________________________________________________________________________
normal_right4_14 (AveragePoolin (None, 8, 8, 672)    0           adjust_bn_14[0][0]               
__________________________________________________________________________________________________
separable_conv_2_bn_normal_left (None, 8, 8, 672)    2688        separable_conv_2_normal_left5_14[
__________________________________________________________________________________________________
normal_add_1_14 (Add)           (None, 8, 8, 672)    0           separable_conv_2_bn_normal_left1_
                                                                 separable_conv_2_bn_normal_right1
__________________________________________________________________________________________________
normal_add_2_14 (Add)           (None, 8, 8, 672)    0           separable_conv_2_bn_normal_left2_
                                                                 separable_conv_2_bn_normal_right2
__________________________________________________________________________________________________
normal_add_3_14 (Add)           (None, 8, 8, 672)    0           normal_left3_14[0][0]            
                                                                 adjust_bn_14[0][0]               
__________________________________________________________________________________________________
normal_add_4_14 (Add)           (None, 8, 8, 672)    0           normal_left4_14[0][0]            
                                                                 normal_right4_14[0][0]           
__________________________________________________________________________________________________
normal_add_5_14 (Add)           (None, 8, 8, 672)    0           separable_conv_2_bn_normal_left5_
                                                                 normal_bn_1_14[0][0]             
__________________________________________________________________________________________________
normal_concat_14 (Concatenate)  (None, 8, 8, 4032)   0           adjust_bn_14[0][0]               
                                                                 normal_add_1_14[0][0]            
                                                                 normal_add_2_14[0][0]            
                                                                 normal_add_3_14[0][0]            
                                                                 normal_add_4_14[0][0]            
                                                                 normal_add_5_14[0][0]            
__________________________________________________________________________________________________
activation_493 (Activation)     (None, 8, 8, 4032)   0           normal_concat_13[0][0]           
__________________________________________________________________________________________________
activation_494 (Activation)     (None, 8, 8, 4032)   0           normal_concat_14[0][0]           
__________________________________________________________________________________________________
adjust_conv_projection_15 (Conv (None, 8, 8, 672)    2709504     activation_493[0][0]             
__________________________________________________________________________________________________
normal_conv_1_15 (Conv2D)       (None, 8, 8, 672)    2709504     activation_494[0][0]             
__________________________________________________________________________________________________
adjust_bn_15 (BatchNormalizatio (None, 8, 8, 672)    2688        adjust_conv_projection_15[0][0]  
__________________________________________________________________________________________________
normal_bn_1_15 (BatchNormalizat (None, 8, 8, 672)    2688        normal_conv_1_15[0][0]           
__________________________________________________________________________________________________
activation_495 (Activation)     (None, 8, 8, 672)    0           normal_bn_1_15[0][0]             
__________________________________________________________________________________________________
activation_497 (Activation)     (None, 8, 8, 672)    0           adjust_bn_15[0][0]               
__________________________________________________________________________________________________
activation_499 (Activation)     (None, 8, 8, 672)    0           adjust_bn_15[0][0]               
__________________________________________________________________________________________________
activation_501 (Activation)     (None, 8, 8, 672)    0           adjust_bn_15[0][0]               
__________________________________________________________________________________________________
activation_503 (Activation)     (None, 8, 8, 672)    0           normal_bn_1_15[0][0]             
__________________________________________________________________________________________________
separable_conv_1_normal_left1_1 (None, 8, 8, 672)    468384      activation_495[0][0]             
__________________________________________________________________________________________________
separable_conv_1_normal_right1_ (None, 8, 8, 672)    457632      activation_497[0][0]             
__________________________________________________________________________________________________
separable_conv_1_normal_left2_1 (None, 8, 8, 672)    468384      activation_499[0][0]             
__________________________________________________________________________________________________
separable_conv_1_normal_right2_ (None, 8, 8, 672)    457632      activation_501[0][0]             
__________________________________________________________________________________________________
separable_conv_1_normal_left5_1 (None, 8, 8, 672)    457632      activation_503[0][0]             
__________________________________________________________________________________________________
separable_conv_1_bn_normal_left (None, 8, 8, 672)    2688        separable_conv_1_normal_left1_15[
__________________________________________________________________________________________________
separable_conv_1_bn_normal_righ (None, 8, 8, 672)    2688        separable_conv_1_normal_right1_15
__________________________________________________________________________________________________
separable_conv_1_bn_normal_left (None, 8, 8, 672)    2688        separable_conv_1_normal_left2_15[
__________________________________________________________________________________________________
separable_conv_1_bn_normal_righ (None, 8, 8, 672)    2688        separable_conv_1_normal_right2_15
__________________________________________________________________________________________________
separable_conv_1_bn_normal_left (None, 8, 8, 672)    2688        separable_conv_1_normal_left5_15[
__________________________________________________________________________________________________
activation_496 (Activation)     (None, 8, 8, 672)    0           separable_conv_1_bn_normal_left1_
__________________________________________________________________________________________________
activation_498 (Activation)     (None, 8, 8, 672)    0           separable_conv_1_bn_normal_right1
__________________________________________________________________________________________________
activation_500 (Activation)     (None, 8, 8, 672)    0           separable_conv_1_bn_normal_left2_
__________________________________________________________________________________________________
activation_502 (Activation)     (None, 8, 8, 672)    0           separable_conv_1_bn_normal_right2
__________________________________________________________________________________________________
activation_504 (Activation)     (None, 8, 8, 672)    0           separable_conv_1_bn_normal_left5_
__________________________________________________________________________________________________
separable_conv_2_normal_left1_1 (None, 8, 8, 672)    468384      activation_496[0][0]             
__________________________________________________________________________________________________
separable_conv_2_normal_right1_ (None, 8, 8, 672)    457632      activation_498[0][0]             
__________________________________________________________________________________________________
separable_conv_2_normal_left2_1 (None, 8, 8, 672)    468384      activation_500[0][0]             
__________________________________________________________________________________________________
separable_conv_2_normal_right2_ (None, 8, 8, 672)    457632      activation_502[0][0]             
__________________________________________________________________________________________________
separable_conv_2_normal_left5_1 (None, 8, 8, 672)    457632      activation_504[0][0]             
__________________________________________________________________________________________________
separable_conv_2_bn_normal_left (None, 8, 8, 672)    2688        separable_conv_2_normal_left1_15[
__________________________________________________________________________________________________
separable_conv_2_bn_normal_righ (None, 8, 8, 672)    2688        separable_conv_2_normal_right1_15
__________________________________________________________________________________________________
separable_conv_2_bn_normal_left (None, 8, 8, 672)    2688        separable_conv_2_normal_left2_15[
__________________________________________________________________________________________________
separable_conv_2_bn_normal_righ (None, 8, 8, 672)    2688        separable_conv_2_normal_right2_15
__________________________________________________________________________________________________
normal_left3_15 (AveragePooling (None, 8, 8, 672)    0           normal_bn_1_15[0][0]             
__________________________________________________________________________________________________
normal_left4_15 (AveragePooling (None, 8, 8, 672)    0           adjust_bn_15[0][0]               
__________________________________________________________________________________________________
normal_right4_15 (AveragePoolin (None, 8, 8, 672)    0           adjust_bn_15[0][0]               
__________________________________________________________________________________________________
separable_conv_2_bn_normal_left (None, 8, 8, 672)    2688        separable_conv_2_normal_left5_15[
__________________________________________________________________________________________________
normal_add_1_15 (Add)           (None, 8, 8, 672)    0           separable_conv_2_bn_normal_left1_
                                                                 separable_conv_2_bn_normal_right1
__________________________________________________________________________________________________
normal_add_2_15 (Add)           (None, 8, 8, 672)    0           separable_conv_2_bn_normal_left2_
                                                                 separable_conv_2_bn_normal_right2
__________________________________________________________________________________________________
normal_add_3_15 (Add)           (None, 8, 8, 672)    0           normal_left3_15[0][0]            
                                                                 adjust_bn_15[0][0]               
__________________________________________________________________________________________________
normal_add_4_15 (Add)           (None, 8, 8, 672)    0           normal_left4_15[0][0]            
                                                                 normal_right4_15[0][0]           
__________________________________________________________________________________________________
normal_add_5_15 (Add)           (None, 8, 8, 672)    0           separable_conv_2_bn_normal_left5_
                                                                 normal_bn_1_15[0][0]             
__________________________________________________________________________________________________
normal_concat_15 (Concatenate)  (None, 8, 8, 4032)   0           adjust_bn_15[0][0]               
                                                                 normal_add_1_15[0][0]            
                                                                 normal_add_2_15[0][0]            
                                                                 normal_add_3_15[0][0]            
                                                                 normal_add_4_15[0][0]            
                                                                 normal_add_5_15[0][0]            
__________________________________________________________________________________________________
activation_505 (Activation)     (None, 8, 8, 4032)   0           normal_concat_14[0][0]           
__________________________________________________________________________________________________
activation_506 (Activation)     (None, 8, 8, 4032)   0           normal_concat_15[0][0]           
__________________________________________________________________________________________________
adjust_conv_projection_16 (Conv (None, 8, 8, 672)    2709504     activation_505[0][0]             
__________________________________________________________________________________________________
normal_conv_1_16 (Conv2D)       (None, 8, 8, 672)    2709504     activation_506[0][0]             
__________________________________________________________________________________________________
adjust_bn_16 (BatchNormalizatio (None, 8, 8, 672)    2688        adjust_conv_projection_16[0][0]  
__________________________________________________________________________________________________
normal_bn_1_16 (BatchNormalizat (None, 8, 8, 672)    2688        normal_conv_1_16[0][0]           
__________________________________________________________________________________________________
activation_507 (Activation)     (None, 8, 8, 672)    0           normal_bn_1_16[0][0]             
__________________________________________________________________________________________________
activation_509 (Activation)     (None, 8, 8, 672)    0           adjust_bn_16[0][0]               
__________________________________________________________________________________________________
activation_511 (Activation)     (None, 8, 8, 672)    0           adjust_bn_16[0][0]               
__________________________________________________________________________________________________
activation_513 (Activation)     (None, 8, 8, 672)    0           adjust_bn_16[0][0]               
__________________________________________________________________________________________________
activation_515 (Activation)     (None, 8, 8, 672)    0           normal_bn_1_16[0][0]             
__________________________________________________________________________________________________
separable_conv_1_normal_left1_1 (None, 8, 8, 672)    468384      activation_507[0][0]             
__________________________________________________________________________________________________
separable_conv_1_normal_right1_ (None, 8, 8, 672)    457632      activation_509[0][0]             
__________________________________________________________________________________________________
separable_conv_1_normal_left2_1 (None, 8, 8, 672)    468384      activation_511[0][0]             
__________________________________________________________________________________________________
separable_conv_1_normal_right2_ (None, 8, 8, 672)    457632      activation_513[0][0]             
__________________________________________________________________________________________________
separable_conv_1_normal_left5_1 (None, 8, 8, 672)    457632      activation_515[0][0]             
__________________________________________________________________________________________________
separable_conv_1_bn_normal_left (None, 8, 8, 672)    2688        separable_conv_1_normal_left1_16[
__________________________________________________________________________________________________
separable_conv_1_bn_normal_righ (None, 8, 8, 672)    2688        separable_conv_1_normal_right1_16
__________________________________________________________________________________________________
separable_conv_1_bn_normal_left (None, 8, 8, 672)    2688        separable_conv_1_normal_left2_16[
__________________________________________________________________________________________________
separable_conv_1_bn_normal_righ (None, 8, 8, 672)    2688        separable_conv_1_normal_right2_16
__________________________________________________________________________________________________
separable_conv_1_bn_normal_left (None, 8, 8, 672)    2688        separable_conv_1_normal_left5_16[
__________________________________________________________________________________________________
activation_508 (Activation)     (None, 8, 8, 672)    0           separable_conv_1_bn_normal_left1_
__________________________________________________________________________________________________
activation_510 (Activation)     (None, 8, 8, 672)    0           separable_conv_1_bn_normal_right1
__________________________________________________________________________________________________
activation_512 (Activation)     (None, 8, 8, 672)    0           separable_conv_1_bn_normal_left2_
__________________________________________________________________________________________________
activation_514 (Activation)     (None, 8, 8, 672)    0           separable_conv_1_bn_normal_right2
__________________________________________________________________________________________________
activation_516 (Activation)     (None, 8, 8, 672)    0           separable_conv_1_bn_normal_left5_
__________________________________________________________________________________________________
separable_conv_2_normal_left1_1 (None, 8, 8, 672)    468384      activation_508[0][0]             
__________________________________________________________________________________________________
separable_conv_2_normal_right1_ (None, 8, 8, 672)    457632      activation_510[0][0]             
__________________________________________________________________________________________________
separable_conv_2_normal_left2_1 (None, 8, 8, 672)    468384      activation_512[0][0]             
__________________________________________________________________________________________________
separable_conv_2_normal_right2_ (None, 8, 8, 672)    457632      activation_514[0][0]             
__________________________________________________________________________________________________
separable_conv_2_normal_left5_1 (None, 8, 8, 672)    457632      activation_516[0][0]             
__________________________________________________________________________________________________
separable_conv_2_bn_normal_left (None, 8, 8, 672)    2688        separable_conv_2_normal_left1_16[
__________________________________________________________________________________________________
separable_conv_2_bn_normal_righ (None, 8, 8, 672)    2688        separable_conv_2_normal_right1_16
__________________________________________________________________________________________________
separable_conv_2_bn_normal_left (None, 8, 8, 672)    2688        separable_conv_2_normal_left2_16[
__________________________________________________________________________________________________
separable_conv_2_bn_normal_righ (None, 8, 8, 672)    2688        separable_conv_2_normal_right2_16
__________________________________________________________________________________________________
normal_left3_16 (AveragePooling (None, 8, 8, 672)    0           normal_bn_1_16[0][0]             
__________________________________________________________________________________________________
normal_left4_16 (AveragePooling (None, 8, 8, 672)    0           adjust_bn_16[0][0]               
__________________________________________________________________________________________________
normal_right4_16 (AveragePoolin (None, 8, 8, 672)    0           adjust_bn_16[0][0]               
__________________________________________________________________________________________________
separable_conv_2_bn_normal_left (None, 8, 8, 672)    2688        separable_conv_2_normal_left5_16[
__________________________________________________________________________________________________
normal_add_1_16 (Add)           (None, 8, 8, 672)    0           separable_conv_2_bn_normal_left1_
                                                                 separable_conv_2_bn_normal_right1
__________________________________________________________________________________________________
normal_add_2_16 (Add)           (None, 8, 8, 672)    0           separable_conv_2_bn_normal_left2_
                                                                 separable_conv_2_bn_normal_right2
__________________________________________________________________________________________________
normal_add_3_16 (Add)           (None, 8, 8, 672)    0           normal_left3_16[0][0]            
                                                                 adjust_bn_16[0][0]               
__________________________________________________________________________________________________
normal_add_4_16 (Add)           (None, 8, 8, 672)    0           normal_left4_16[0][0]            
                                                                 normal_right4_16[0][0]           
__________________________________________________________________________________________________
normal_add_5_16 (Add)           (None, 8, 8, 672)    0           separable_conv_2_bn_normal_left5_
                                                                 normal_bn_1_16[0][0]             
__________________________________________________________________________________________________
normal_concat_16 (Concatenate)  (None, 8, 8, 4032)   0           adjust_bn_16[0][0]               
                                                                 normal_add_1_16[0][0]            
                                                                 normal_add_2_16[0][0]            
                                                                 normal_add_3_16[0][0]            
                                                                 normal_add_4_16[0][0]            
                                                                 normal_add_5_16[0][0]            
__________________________________________________________________________________________________
activation_517 (Activation)     (None, 8, 8, 4032)   0           normal_concat_15[0][0]           
__________________________________________________________________________________________________
activation_518 (Activation)     (None, 8, 8, 4032)   0           normal_concat_16[0][0]           
__________________________________________________________________________________________________
adjust_conv_projection_17 (Conv (None, 8, 8, 672)    2709504     activation_517[0][0]             
__________________________________________________________________________________________________
normal_conv_1_17 (Conv2D)       (None, 8, 8, 672)    2709504     activation_518[0][0]             
__________________________________________________________________________________________________
adjust_bn_17 (BatchNormalizatio (None, 8, 8, 672)    2688        adjust_conv_projection_17[0][0]  
__________________________________________________________________________________________________
normal_bn_1_17 (BatchNormalizat (None, 8, 8, 672)    2688        normal_conv_1_17[0][0]           
__________________________________________________________________________________________________
activation_519 (Activation)     (None, 8, 8, 672)    0           normal_bn_1_17[0][0]             
__________________________________________________________________________________________________
activation_521 (Activation)     (None, 8, 8, 672)    0           adjust_bn_17[0][0]               
__________________________________________________________________________________________________
activation_523 (Activation)     (None, 8, 8, 672)    0           adjust_bn_17[0][0]               
__________________________________________________________________________________________________
activation_525 (Activation)     (None, 8, 8, 672)    0           adjust_bn_17[0][0]               
__________________________________________________________________________________________________
activation_527 (Activation)     (None, 8, 8, 672)    0           normal_bn_1_17[0][0]             
__________________________________________________________________________________________________
separable_conv_1_normal_left1_1 (None, 8, 8, 672)    468384      activation_519[0][0]             
__________________________________________________________________________________________________
separable_conv_1_normal_right1_ (None, 8, 8, 672)    457632      activation_521[0][0]             
__________________________________________________________________________________________________
separable_conv_1_normal_left2_1 (None, 8, 8, 672)    468384      activation_523[0][0]             
__________________________________________________________________________________________________
separable_conv_1_normal_right2_ (None, 8, 8, 672)    457632      activation_525[0][0]             
__________________________________________________________________________________________________
separable_conv_1_normal_left5_1 (None, 8, 8, 672)    457632      activation_527[0][0]             
__________________________________________________________________________________________________
separable_conv_1_bn_normal_left (None, 8, 8, 672)    2688        separable_conv_1_normal_left1_17[
__________________________________________________________________________________________________
separable_conv_1_bn_normal_righ (None, 8, 8, 672)    2688        separable_conv_1_normal_right1_17
__________________________________________________________________________________________________
separable_conv_1_bn_normal_left (None, 8, 8, 672)    2688        separable_conv_1_normal_left2_17[
__________________________________________________________________________________________________
separable_conv_1_bn_normal_righ (None, 8, 8, 672)    2688        separable_conv_1_normal_right2_17
__________________________________________________________________________________________________
separable_conv_1_bn_normal_left (None, 8, 8, 672)    2688        separable_conv_1_normal_left5_17[
__________________________________________________________________________________________________
activation_520 (Activation)     (None, 8, 8, 672)    0           separable_conv_1_bn_normal_left1_
__________________________________________________________________________________________________
activation_522 (Activation)     (None, 8, 8, 672)    0           separable_conv_1_bn_normal_right1
__________________________________________________________________________________________________
activation_524 (Activation)     (None, 8, 8, 672)    0           separable_conv_1_bn_normal_left2_
__________________________________________________________________________________________________
activation_526 (Activation)     (None, 8, 8, 672)    0           separable_conv_1_bn_normal_right2
__________________________________________________________________________________________________
activation_528 (Activation)     (None, 8, 8, 672)    0           separable_conv_1_bn_normal_left5_
__________________________________________________________________________________________________
separable_conv_2_normal_left1_1 (None, 8, 8, 672)    468384      activation_520[0][0]             
__________________________________________________________________________________________________
separable_conv_2_normal_right1_ (None, 8, 8, 672)    457632      activation_522[0][0]             
__________________________________________________________________________________________________
separable_conv_2_normal_left2_1 (None, 8, 8, 672)    468384      activation_524[0][0]             
__________________________________________________________________________________________________
separable_conv_2_normal_right2_ (None, 8, 8, 672)    457632      activation_526[0][0]             
__________________________________________________________________________________________________
separable_conv_2_normal_left5_1 (None, 8, 8, 672)    457632      activation_528[0][0]             
__________________________________________________________________________________________________
separable_conv_2_bn_normal_left (None, 8, 8, 672)    2688        separable_conv_2_normal_left1_17[
__________________________________________________________________________________________________
separable_conv_2_bn_normal_righ (None, 8, 8, 672)    2688        separable_conv_2_normal_right1_17
__________________________________________________________________________________________________
separable_conv_2_bn_normal_left (None, 8, 8, 672)    2688        separable_conv_2_normal_left2_17[
__________________________________________________________________________________________________
separable_conv_2_bn_normal_righ (None, 8, 8, 672)    2688        separable_conv_2_normal_right2_17
__________________________________________________________________________________________________
normal_left3_17 (AveragePooling (None, 8, 8, 672)    0           normal_bn_1_17[0][0]             
__________________________________________________________________________________________________
normal_left4_17 (AveragePooling (None, 8, 8, 672)    0           adjust_bn_17[0][0]               
__________________________________________________________________________________________________
normal_right4_17 (AveragePoolin (None, 8, 8, 672)    0           adjust_bn_17[0][0]               
__________________________________________________________________________________________________
separable_conv_2_bn_normal_left (None, 8, 8, 672)    2688        separable_conv_2_normal_left5_17[
__________________________________________________________________________________________________
normal_add_1_17 (Add)           (None, 8, 8, 672)    0           separable_conv_2_bn_normal_left1_
                                                                 separable_conv_2_bn_normal_right1
__________________________________________________________________________________________________
normal_add_2_17 (Add)           (None, 8, 8, 672)    0           separable_conv_2_bn_normal_left2_
                                                                 separable_conv_2_bn_normal_right2
__________________________________________________________________________________________________
normal_add_3_17 (Add)           (None, 8, 8, 672)    0           normal_left3_17[0][0]            
                                                                 adjust_bn_17[0][0]               
__________________________________________________________________________________________________
normal_add_4_17 (Add)           (None, 8, 8, 672)    0           normal_left4_17[0][0]            
                                                                 normal_right4_17[0][0]           
__________________________________________________________________________________________________
normal_add_5_17 (Add)           (None, 8, 8, 672)    0           separable_conv_2_bn_normal_left5_
                                                                 normal_bn_1_17[0][0]             
__________________________________________________________________________________________________
normal_concat_17 (Concatenate)  (None, 8, 8, 4032)   0           adjust_bn_17[0][0]               
                                                                 normal_add_1_17[0][0]            
                                                                 normal_add_2_17[0][0]            
                                                                 normal_add_3_17[0][0]            
                                                                 normal_add_4_17[0][0]            
                                                                 normal_add_5_17[0][0]            
__________________________________________________________________________________________________
activation_529 (Activation)     (None, 8, 8, 4032)   0           normal_concat_16[0][0]           
__________________________________________________________________________________________________
activation_530 (Activation)     (None, 8, 8, 4032)   0           normal_concat_17[0][0]           
__________________________________________________________________________________________________
adjust_conv_projection_18 (Conv (None, 8, 8, 672)    2709504     activation_529[0][0]             
__________________________________________________________________________________________________
normal_conv_1_18 (Conv2D)       (None, 8, 8, 672)    2709504     activation_530[0][0]             
__________________________________________________________________________________________________
adjust_bn_18 (BatchNormalizatio (None, 8, 8, 672)    2688        adjust_conv_projection_18[0][0]  
__________________________________________________________________________________________________
normal_bn_1_18 (BatchNormalizat (None, 8, 8, 672)    2688        normal_conv_1_18[0][0]           
__________________________________________________________________________________________________
activation_531 (Activation)     (None, 8, 8, 672)    0           normal_bn_1_18[0][0]             
__________________________________________________________________________________________________
activation_533 (Activation)     (None, 8, 8, 672)    0           adjust_bn_18[0][0]               
__________________________________________________________________________________________________
activation_535 (Activation)     (None, 8, 8, 672)    0           adjust_bn_18[0][0]               
__________________________________________________________________________________________________
activation_537 (Activation)     (None, 8, 8, 672)    0           adjust_bn_18[0][0]               
__________________________________________________________________________________________________
activation_539 (Activation)     (None, 8, 8, 672)    0           normal_bn_1_18[0][0]             
__________________________________________________________________________________________________
separable_conv_1_normal_left1_1 (None, 8, 8, 672)    468384      activation_531[0][0]             
__________________________________________________________________________________________________
separable_conv_1_normal_right1_ (None, 8, 8, 672)    457632      activation_533[0][0]             
__________________________________________________________________________________________________
separable_conv_1_normal_left2_1 (None, 8, 8, 672)    468384      activation_535[0][0]             
__________________________________________________________________________________________________
separable_conv_1_normal_right2_ (None, 8, 8, 672)    457632      activation_537[0][0]             
__________________________________________________________________________________________________
separable_conv_1_normal_left5_1 (None, 8, 8, 672)    457632      activation_539[0][0]             
__________________________________________________________________________________________________
separable_conv_1_bn_normal_left (None, 8, 8, 672)    2688        separable_conv_1_normal_left1_18[
__________________________________________________________________________________________________
separable_conv_1_bn_normal_righ (None, 8, 8, 672)    2688        separable_conv_1_normal_right1_18
__________________________________________________________________________________________________
separable_conv_1_bn_normal_left (None, 8, 8, 672)    2688        separable_conv_1_normal_left2_18[
__________________________________________________________________________________________________
separable_conv_1_bn_normal_righ (None, 8, 8, 672)    2688        separable_conv_1_normal_right2_18
__________________________________________________________________________________________________
separable_conv_1_bn_normal_left (None, 8, 8, 672)    2688        separable_conv_1_normal_left5_18[
__________________________________________________________________________________________________
activation_532 (Activation)     (None, 8, 8, 672)    0           separable_conv_1_bn_normal_left1_
__________________________________________________________________________________________________
activation_534 (Activation)     (None, 8, 8, 672)    0           separable_conv_1_bn_normal_right1
__________________________________________________________________________________________________
activation_536 (Activation)     (None, 8, 8, 672)    0           separable_conv_1_bn_normal_left2_
__________________________________________________________________________________________________
activation_538 (Activation)     (None, 8, 8, 672)    0           separable_conv_1_bn_normal_right2
__________________________________________________________________________________________________
activation_540 (Activation)     (None, 8, 8, 672)    0           separable_conv_1_bn_normal_left5_
__________________________________________________________________________________________________
separable_conv_2_normal_left1_1 (None, 8, 8, 672)    468384      activation_532[0][0]             
__________________________________________________________________________________________________
separable_conv_2_normal_right1_ (None, 8, 8, 672)    457632      activation_534[0][0]             
__________________________________________________________________________________________________
separable_conv_2_normal_left2_1 (None, 8, 8, 672)    468384      activation_536[0][0]             
__________________________________________________________________________________________________
separable_conv_2_normal_right2_ (None, 8, 8, 672)    457632      activation_538[0][0]             
__________________________________________________________________________________________________
separable_conv_2_normal_left5_1 (None, 8, 8, 672)    457632      activation_540[0][0]             
__________________________________________________________________________________________________
separable_conv_2_bn_normal_left (None, 8, 8, 672)    2688        separable_conv_2_normal_left1_18[
__________________________________________________________________________________________________
separable_conv_2_bn_normal_righ (None, 8, 8, 672)    2688        separable_conv_2_normal_right1_18
__________________________________________________________________________________________________
separable_conv_2_bn_normal_left (None, 8, 8, 672)    2688        separable_conv_2_normal_left2_18[
__________________________________________________________________________________________________
separable_conv_2_bn_normal_righ (None, 8, 8, 672)    2688        separable_conv_2_normal_right2_18
__________________________________________________________________________________________________
normal_left3_18 (AveragePooling (None, 8, 8, 672)    0           normal_bn_1_18[0][0]             
__________________________________________________________________________________________________
normal_left4_18 (AveragePooling (None, 8, 8, 672)    0           adjust_bn_18[0][0]               
__________________________________________________________________________________________________
normal_right4_18 (AveragePoolin (None, 8, 8, 672)    0           adjust_bn_18[0][0]               
__________________________________________________________________________________________________
separable_conv_2_bn_normal_left (None, 8, 8, 672)    2688        separable_conv_2_normal_left5_18[
__________________________________________________________________________________________________
normal_add_1_18 (Add)           (None, 8, 8, 672)    0           separable_conv_2_bn_normal_left1_
                                                                 separable_conv_2_bn_normal_right1
__________________________________________________________________________________________________
normal_add_2_18 (Add)           (None, 8, 8, 672)    0           separable_conv_2_bn_normal_left2_
                                                                 separable_conv_2_bn_normal_right2
__________________________________________________________________________________________________
normal_add_3_18 (Add)           (None, 8, 8, 672)    0           normal_left3_18[0][0]            
                                                                 adjust_bn_18[0][0]               
__________________________________________________________________________________________________
normal_add_4_18 (Add)           (None, 8, 8, 672)    0           normal_left4_18[0][0]            
                                                                 normal_right4_18[0][0]           
__________________________________________________________________________________________________
normal_add_5_18 (Add)           (None, 8, 8, 672)    0           separable_conv_2_bn_normal_left5_
                                                                 normal_bn_1_18[0][0]             
__________________________________________________________________________________________________
normal_concat_18 (Concatenate)  (None, 8, 8, 4032)   0           adjust_bn_18[0][0]               
                                                                 normal_add_1_18[0][0]            
                                                                 normal_add_2_18[0][0]            
                                                                 normal_add_3_18[0][0]            
                                                                 normal_add_4_18[0][0]            
                                                                 normal_add_5_18[0][0]            
__________________________________________________________________________________________________
activation_541 (Activation)     (None, 8, 8, 4032)   0           normal_concat_18[0][0]           
__________________________________________________________________________________________________
flatten (Flatten)               (None, 258048)       0           activation_541[0][0]             
__________________________________________________________________________________________________
dense (Dense)                   (None, 1024)         264242176   flatten[0][0]                    
__________________________________________________________________________________________________
dense_1 (Dense)                 (None, 38)           38950       dense[0][0]                      
==================================================================================================
Total params: 349,197,944
Trainable params: 264,281,126
Non-trainable params: 84,916,818
__________________________________________________________________________________________________
None
Epoch 1/100
2021-01-14 19:40:21.488918: I tensorflow/stream_executor/platform/default/dso_loader.cc:49] Successfully opened dynamic library libcublas.so.11
…
